data/sac/sac_s0/pyt_save/model.pt (torch, 816298 bytes, 16 tensors)

weight f4 [256, 2]
-0.0052939653 0.37932295 -0.8262684 0.47814825 -0.030140655 0.23588604 0.9448082 0.78686595
-0.06275153 0.18710935 -0.07857575 -0.008837634 -0.16828392 2.2682428 -0.16054751 0.15472087
1.1137096 0.5456233 -0.64019483 0.97492975 0.9273613 0.7779698 -0.14552271 0.52913636
-0.113973856 0.07482189 0.6402684 -0.655962 0.03902971 2.9500067 -0.20380916 0.5957647
-0.2422763 0.21970783 -0.33703277 -0.6362423 -0.056522902 3.6533375 1.127418 2.1212404
0.037187874 -0.36252198 0.11963165 -0.6602219 -0.46394643 -0.3726301 1.2766321 1.3078346
-0.19054218 -0.0026395104 0.45223767 0.7029583 0.2806381 0.095525086 0.5693712 -1.0988387
0.13176513 -0.5482238 -0.17954646 -0.59230006 0.3199467 0.28437036 -0.34781593 0.15231805
1.0078806 -0.24870987 0.85958385 0.9834439 0.43867248 0.6789598 -0.25933272 0.2637621
0.27789998 0.5858728 1.3715148 1.9195875 0.14072454 -0.6148878 0.065048516 -0.4423698
-0.15883213 3.5804265 0.53765553 -0.70535874 0.1535542 -0.15302896 -0.036215242 -0.28347093
0.2719223 -0.4188218 0.25921923 0.35758966 1.1184266 1.4865195 -0.39893383 -0.7057081
0.353069 0.1479984 -0.40752968 -0.43196943 1.6083986 1.4365652 0.6783411 0.65865797
-0.9971052 0.907056 -0.10281916 2.3889234 -0.03896129 0.10616857 -0.52570915 1.9211919
-0.14032896 4.4216495 0.45498762 -2.7524328 0.85737675 0.27031165 0.37004292 2.9628546
0.2774887 0.042355835 -0.34501773 0.33459514 -0.3826175 0.42262787 0.7536361 -0.54687953
-0.20390771 -0.56718427 -0.15041232 0.15114862 -0.13342053 -3.798802 1.2879751 0.008893801
0.019652069 -0.0610013 0.14310521 0.44960636 0.66980416 0.44905227 1.2428564 0.10305635
-0.6565989 0.72315305 0.48147267 -0.0045838356 -0.17241576 -4.4939404 -0.26445153 -2.670767
0.075255886 4.255013 0.51165783 -2.6230268 0.38588896 -0.62294555 -0.14948964 -0.28671244
-0.13619953 -0.13883525 0.19298324 -0.0544803 -0.12798321 3.3917785 -0.32671535 -2.0555434
-0.53983265 -0.17290221 1.2797287 0.45533347 1.2553191 1.3740615 0.017054988 1.0761225
-0.081596196 -0.3156573 0.56544024 -0.5714096 0.07587606 -0.14804602 1.088986 1.1879503
0.3397686 0.24972111 -0.17004126 -0.1487084 -0.14032394 2.3571389 0.5614273 0.48382002
-0.37240356 0.037526462 -0.6255712 0.8112464 -0.21740362 0.31257418 -0.42137423 -0.015427113
0.7801808 2.252102 -0.43602794 0.9676927 -0.39375275 0.34273818 0.052864492 4.5788093
0.8304688 0.61631185 0.07055542 -0.025621824 0.41481832 -0.20696156 0.072337 0.06861319
-0.8355444 0.9580271 1.3508127 -0.44439828 0.89402026 0.81815565 0.25543314 0.020020366
-0.7862989 1.7961564 -0.40927926 -0.2703265 0.8064533 -0.069038294 0.007734537 0.583227
0.08827436 0.63335043 0.30672005 -0.486255 0.45552585 -2.153816 -0.1706646 0.37093055
0.9729926 0.80985075 -0.071694456 0.06347119 0.4358135 -2.4565742 0.4317912 -0.62954533
0.009745717 -0.120220006 -0.37241402 0.09345901 0.58471984 -0.2067011 -0.22650564 -1.8525484
00000000: 0079 adbb 9e36 c23e 5386 53bf d9cf f43e
00000010: 89e9 f6bc 1c8c 713e f3de 713f 0c70 493f
00000020: e083 80bd 9899 3f3e 53ec a0bd b9cb 10bc
00000030: 9f52 2cbe e42a 1140 9166 24be 266f 1e3e
00000040: 098e 8e3f f8ad 0b3f cfe3 23bf ff94 793f
00000050: 8d67 6d3f 0729 473f e803 15be 7b75 073f
00000060: 206b e9bd 383c 993d a1e8 233f 20ed 27bf
00000070: 9edd 1f3d e9cc 3c40 59b3 50be 0984 183f
00000080: 4717 78be 17fb 603e 8f8f acbe c6e0 22bf
00000090: 8f84 67bd 48d0 6940 3c4f 903f 67c2 0740
000000a0: 5052 183d 7b9c b9be 7001 f53d 4d04 29bf
000000b0: 638a edbe 5fc9 bebe ae68 a33f 2067 a73f
000000c0: 7d1d 43be a3fb 2cbb b28b e73e 13f5 333f
000000d0: ccaf 8f3e a8a2 c33d 50c2 113f bfa6 8cbf
000000e0: 70ed 063e 6558 0cbf 07db 37be faa0 17bf
000000f0: 0ed0 a33e fe98 913e ee14 b2be 43f9 1b3e
00000100: 3b02 813f cdad 7ebe b00d 5c3f fbc2 7b3f
00000110: ae99 e03e 4fd0 2d3f 42c7 84be d30b 873e
00000120: e848 8e3e c3fb 153f cc8d af3f 0bb5 f53f
00000130: 181a 103e 4969 1dbf 2838 853d 4b7e e2be
00000140: e4a4 22be b525 6540 cba3 093f 6492 34bf
00000150: 503d 1d3e a0b3 1cbe 6f56 14bd 1a23 91be
00000160: 6639 8b3e d06f d6be 62b8 843e fe15 b73e
00000170: 9a28 8f3f 4546 be3f 0e41 ccbe 49a9 34bf
00000180: 76c5 b43e e48c 173e bba7 d0be 192b ddbe
00000190: 01e0 cd3f 5ee1 b73f c3a7 2d3f cf9d 283f
000001a0: 4942 7fbf d234 683f da92 d2bd 1fe4 1840
000001b0: e095 1fbd e86e d93d e094 06bf 9ee9 f53f
000001c0: 65b2 0fbe 277e 8d40 23f4 e83e dc27 30c0
000001d0: 0b7d 5b3f 4a66 8a3e 4476 bd3e 699f 3d40
000001e0: 0013 8e3e 507d 2d3d 2aa6 b0be 0e50 ab3e
000001f0: 71e6 c3be ae62 d83e 4cee 403f 4c00 0cbf
00000200: 2fcd 50be fd32 11bf b005 1abe b4c6 1a3e
00000210: 649f 08be 921f 73c0 5edc a43f 4eb7 113c
00000220: 60fd a03c 80dc 79bd 2c8a 123e ce32 e63e
00000230: 4978 2b3f 2eea e53e eb15 9f3f 350f d33d
00000240: de16 28bf 8f20 393f 9683 f63e 0034 96bb
00000250: c28d 30be 5cce 8fc0 3166 87be d9ed 2ac0
00000260: c21f 9a3d 1129 8840 02fc 023f acdf 27c0
00000270: 3d93 c53e 5c79 1fbf d013 19be f9cb 92be
00000280: e477 0bbe d42a 0ebe 669d 453e bc26 5fbd
00000290: 080e 03be e612 5940 3c47 a7be 068e 03c0
000002a0: 7932 0abf 470d 31be 26ce a33f 7821 e93e
000002b0: 4cae a03f 3fe1 af3f e7b6 8b3c 62be 893f
000002c0: e81b a7bd d59d a1be b1c0 103f e647 12bf
000002d0: e864 9b3d 6099 17be e563 8b3f c10e 983f
000002e0: 26f6 ad3e e4b6 7f3e 4c1f 2ebe 0447 18be
000002f0: 14b1 0fbe 5ddb 1640 b3b9 0f3f 42b7 f73e
00000300: aeab bebe 59b5 193d 6f25 20bf d8ad 4f3f
00000310: 0e9f 5ebe b909 a03e 5dbe d7be 00c2 7cbc
00000320: eeb9 473f 7022 1040 0e3f dfbe b5ba 773f
00000330: f699 c9be 617b af3e 7088 583d 9b85 9240
00000340: 9a99 543f 9dc6 1d3f 5c7f 903d dce4 d1bc
00000350: 1163 d43e bbed 53be 6c25 943d 1285 8c3d
00000360: 3de6 55bf 4441 753f 6ee7 ac3f 2c88 e3be
00000370: 83de 643f a672 513f 22c8 823e c001 a43c
00000380: e24a 49bf 74e8 e53f 0d8d d1be 3c68 8abe
00000390: b973 4e3f f363 8dbd 0072 fd3b 5d4e 153f
000003a0: 30c9 b43d 4123 223f 690a 9d3e 6af6 f8be
000003b0: af3a e93e 1fd8 09c0 b3c2 2ebe 9cea bd3e
000003c0: 0b16 793f 6152 4f3f 8bd4 92bd 2ffd 813d
000003d0: f222 df3e 8338 1dc0 bc13 dd3e e229 21bf
000003e0: 80ac 1f3c e835 f6bd 0dad bebe 7067 bf3d
000003f0: 33b0 153f 74a9 53be 18f1 67be 4e20 edbf

bias f4 [256]
-0.19619006 -0.37538326 -0.04148065 -0.2678385 -0.3454723 -0.09526407 -0.054946706 -0.19447207
-0.32072628 -0.27248633 -0.26684588 -0.5122241 -0.41579914 -0.3589207 0.062917374 -0.26450008
-0.29182994 -0.48747805 0.11338156 0.047451075 -0.5332905 -0.57323015 -0.583697 -0.2748304
-0.28925338 -0.46283367 -0.2536195 -0.03250936 -0.36945674 -0.28015444 -0.1621508 -0.41828772
-0.29203612 -0.032629475 -0.47806025 -0.31365314 -0.26075816 0.09435677 -0.6708769 -0.6778758
-0.09931976 -0.44737935 -0.076681286 -0.13149677 -0.14895701 -0.15793073 0.03199785 0.24950896
-0.68844944 -0.56129706 -0.35297596 -0.20745333 -0.44678187 -0.054233577 -0.15749341 -0.2274762
-0.09211425 0.46513724 -0.25791904 0.047012527 -0.21450359 -0.46914583 -0.45984855 -0.22094287
-0.28100017 -0.65574956 0.11912811 0.042944722 -0.20130146 -0.5855011 -0.64138806 -0.36563838
-0.29746947 -0.3570799 0.13650954 -0.107797004 0.10481666 0.50710684 -0.17200929 -0.6235035
-0.63895804 0.2352896 -0.08612767 0.12573224 -0.7119499 0.2618912 0.18025477 -0.028530553
-0.5965047 -0.2668079 -0.48632246 0.23638485 -0.30382964 -0.3228328 -0.040178172 -0.32710218
-0.4679258 -0.28867242 -0.26323187 -0.55082095 -0.03631588 -0.5267949 0.126868 0.08733329
-0.04209723 -0.033491667 -0.19641581 -0.036936276 -0.34618744 0.07580092 -0.2350102 -0.68991053
-0.32954645 -0.5749493 -0.24000788 -0.11677575 -0.64454544 -0.18106903 0.46889377 0.037776317
-0.27893844 -0.08644603 0.431927 -0.23594144 -0.28128722 -0.6609387 -0.53268963 0.09882707
-0.43838975 0.1256902 0.12923405 -0.20541322 -0.45845252 0.14449546 -0.4111822 0.2777605
-0.57725924 -0.26307747 0.49764246 -0.28891015 0.12831502 -0.57585007 -0.5938081 -0.31884798
-0.029941693 0.06259944 -0.3375734 -0.05999886 -0.042714592 -0.15334481 0.031990856 -0.5479978
-0.2278377 0.21526054 -0.12272404 0.2284926 -0.21775836 0.13679151 -0.68400586 -0.15989596
-0.12420076 0.29672375 -0.34713912 0.33145154 -0.16365382 0.1501948 0.077181295 -0.31959885
0.33678403 -0.47080028 -0.14278297 -0.2635551 0.20755912 0.2443677 -0.25765696 -0.58582425
-0.26274154 -0.2515281 -0.052604213 -0.5731615 0.2499572 -0.06503569 -0.18457443 -0.660472
-0.092945464 -0.55347794 0.27036142 0.1555341 -0.3309518 0.038028073 -0.6324594 -0.3151824
-0.448271 -0.3180344 -0.21839656 0.2565969 -0.42279148 -0.11541608 -0.19963859 -0.4128542
-0.61574835 -0.64878345 0.058912475 -0.30458173 -0.13586344 0.14665325 -0.26656085 -0.17370233
-0.033726323 -0.52388346 -0.11329037 -0.4184217 -0.4040067 -0.029507902 0.08324562 -0.58590925
0.25919065 -0.5004787 -0.13772619 0.3491628 -0.3590497 -0.051279157 -0.6332083 -0.061432473
-0.0914076 -0.51717114 -0.37355673 -0.53596663 -0.5610944 -0.38321084 0.049532935 -0.20009989
-0.26900485 0.43675935 0.096139 -0.37092066 -0.15121709 -0.22251579 -0.450026 -0.21772642
-0.111622244 -0.10829328 -0.060996376 -0.33834225 -0.30612183 0.08504171 -0.29423314 -0.4911937
-0.31242952 0.2856243 -0.7132351 0.106118634 -0.37308493 -0.49540806 -0.20831805 0.098865815
00000000: 0ce6 48be 3c32 c0be 9de7 29bd 2122 89be
00000010: bfe1 b0be cf19 c3bd cc0f 61bd b023 47be
00000020: 3c36 a4be 5483 8bbe 06a0 88be 1e21 03bf
00000030: a0e3 d4be 74c4 b7be d3da 803d 8e6c 87be
00000040: bc6a 95be b996 f9be 9734 e83d 0f5c 423d
00000050: ba85 08bf 36bf 12bf 2b6d 15bf 92b6 8cbe
00000060: 0519 94be 89f8 ecbe 6ada 81be 8928 05bd
00000070: 6f29 bdbe 6770 8fbe dc0a 26be cf29 d6be
00000080: c285 95be 7ca6 05bd 50c4 f4be 2597 a0be
00000090: 1882 85be 1f3e c13d 97be 2bbf 4589 2dbf
000000a0: 2968 cbbd e80e e5be 140b 9dbd 17a7 06be
000000b0: 3088 18be 98b8 21be 2d10 033d 477f 7f3e
000000c0: 393e 30bf 2ab1 0fbf 44b9 b4be a56e 54be
000000d0: 98c0 e4be 0724 5ebd f445 21be 85ef 68be
000000e0: 65a6 bcbd 7826 ee3e f70d 84be 3590 403d
000000f0: d4a6 5bbe e233 f0be 4571 ebbe d93e 62be
00000100: 41df 8fbe 34df 27bf 70f9 f33d cee6 2f3d
00000110: f821 4ebe 66e3 15bf 0232 24bf f434 bbbe
00000120: eb4d 98be 2dd3 b6be 28c9 0b3e adc4 dcbd
00000130: 1eaa d63d c1d1 013f 3423 30be ed9d 1fbf
00000140: c192 23bf c2ef 703e b463 b0bd f4bf 003e
00000150: 5942 36bf 9a16 863e b594 383e e8b8 e9bc
00000160: 88b4 18bf 0c9b 88be 42ff f8be df0e 723e
00000170: 8f8f 9bbe 574a a5be de91 24bd f079 a7be
00000180: f893 efbe dfcc 93be 54c6 86be 9a02 0dbf
00000190: f6bf 14bd 08dc 06bf afe9 013e ccdb b23d
000001a0: 256e 2cbd 8f2e 09bd 3a21 49be 7e4a 17bd
000001b0: 7b3f b1be 833d 9b3d 84a6 70be fa9d 30bf
000001c0: 50ba a8be e12f 13bf a0c4 75be 2028 efbd
000001d0: ee00 25bf 296a 39be d812 f03e 57bb 1a3d
000001e0: 05d1 8ebe 9e0a b1bd 8925 dd3e a29a 71be
000001f0: e104 90be 4733 29bf 595e 08bf d965 ca3d
00000200: 9f74 e0be efb4 003e ee55 043e d857 52be
00000210: 4aba eabe 9ef6 133e 7986 d2be a036 8e3e
00000220: 43c7 13bf 17b2 86be feca fe3e 08ec 93be
00000230: 0365 033e e96a 13bf cf03 18bf 0b40 a3be
00000240: 4848 f5bc 2334 803d 6cd6 acbe 5dc1 75bd
00000250: 7ff5 2ebd 6c06 1dbe d808 033d 9549 0cbf
00000260: 494e 69be 426d 5c3e be56 fbbd f7f9 693e
00000270: 0cfc 5ebe 1313 0c3e 021b 2fbf c4bb 23be
00000280: f85c febd 2dec 973e 38bc b1be 04b4 a93e
00000290: de94 27be aacc 193e 3a11 9e3d 76a2 a3be
000002a0: f56e ac3e bc0c f1be b335 12be b2f0 86be
000002b0: 618a 543e 873b 7a3e 9deb 83be 94f8 15bf
000002c0: 0f86 86be 4bc8 80be 8477 57bd b6ba 12bf
000002d0: c8f4 7f3e 6f31 85bd 1401 3dbe b114 29bf
000002e0: 315a bebd bbb0 0dbf d06c 8a3e 5544 1f3e
000002f0: 8472 a9be 53c3 1b3d dce8 21bf 965f a1be
00000300: c783 e5be 68d5 a2be 59a3 5fbe ab60 833e
00000310: 2078 d8be 445f ecbd 0f6e 4cbe a061 d3be
00000320: afa1 1dbf ac16 26bf 354e 713d 23f2 9bbe
00000330: c91f 0bbe 452c 163e aa7a 88be 06df 31be
00000340: 9d24 0abd 3a1d 06bf c804 e8bd 5e3b d6be
00000350: f7d9 cebe 8eba f1bc ae7c aa3d 26fe 15bf
00000360: a3b4 843e 5f1f 00bf 1808 0dbe 77c5 b23e
00000370: 5dd5 b7be 180a 52bd f019 22bf 9ea0 7bbd
00000380: e833 bbbd 5465 04bf d442 bfbe 1c35 09bf
00000390: e2a3 0fbf 3634 c4be 0ce3 4a3d fce6 4cbe
000003a0: 01bb 89be ec9e df3e 86e4 c43d 50e9 bdbe
000003b0: a7d8 1abe 2edb 63be cf69 e6be adf3 5ebe
000003c0: 349a e4bd dec8 ddbd 56d7 79bd 323b adbe
000003d0: 00bc 9cbe 592a ae3d baa5 96be be7d fbbe
000003e0: c3f6 9fbe 593d 923e 9396 36bf ba54 d93d
000003f0: fd04 bfbe 20a6 fdbe 5451 55be 297a ca3d

weight f4 [256, 256]
-0.047952168 -0.048755612 -0.010132598 -0.084123425 0.03426239 0.014103935 0.007765558 -0.06966342
0.062250063 -0.06676138 0.06239628 -0.059980653 -0.055685624 0.03838727 -0.024456546 0.0036055818
-0.065323144 -0.026217215 -0.049273677 -0.09161458 0.0032480434 0.011053681 -5.2914023e-05 0.020183146
0.041857917 0.016617753 -0.022879526 -0.02572167 -0.039987847 -0.07404167 -0.010065615 -0.011054099
0.027803905 -0.057507265 0.04982523 -0.074657515 0.00017763674 0.056182496 0.06214907 -0.03620389
-0.01988956 0.0073826686 -0.02930323 -0.02159343 0.016928375 -0.043460324 0.010312229 -0.0037736092
-0.024629384 0.051915072 -0.0041131526 -0.0025167663 0.03192348 -0.050099608 0.03396301 -0.047838338
-0.04010236 -0.010591947 -0.031207502 -0.054137386 0.014649183 0.0023550242 0.008771951 -0.043578878
0.0062675104 -0.023249395 -0.08326581 0.025291704 0.007997371 -0.025030233 -0.02113156 0.016345084
-0.042059742 0.040842243 -0.027247518 -0.007360178 -0.0037004868 -0.0446874 0.027041554 0.04612083
0.0028761476 -0.018785112 -0.02843823 0.012444231 -0.026387207 -0.033223115 0.027234599 -0.08539037
0.0010020286 -0.028743193 0.0412521 -0.058189943 0.037895784 0.061834797 -0.018336296 -0.0041641667
0.061521865 -0.05735062 -0.035474055 -0.02736906 -0.039374888 -0.014049996 -0.022553936 -0.04277064
-0.08243736 0.0032002553 -0.032711193 -0.012186122 0.017828751 0.06075059 -0.06729716 -0.0038971528
-0.055673327 -0.057602853 -0.07638271 0.058660068 0.03644132 0.033571944 0.03473395 -0.080405526
0.0065637007 0.02824831 -0.03488037 0.055599645 0.016427405 0.04397147 -0.026774228 -0.0020831963
-0.08530732 -0.03372167 -0.009953007 0.018743403 0.052300505 0.030462623 0.056859814 0.01104612
0.04394138 -0.03779904 -0.04850293 -0.023201697 -0.037894294 -0.03377416 0.03194818 0.021939203
-0.020211894 -0.015883194 0.05490327 -0.007752256 -0.054808713 -0.045367546 -0.003398493 0.008517452
0.030480728 -0.09329529 -0.057679333 0.0073749204 0.039977856 -0.08687295 0.02372408 -0.048802763
0.047331735 -0.011321788 0.061799183 -0.078667924 -0.06016726 0.01148778 0.055488944 0.008223664
0.013492332 -0.052641958 0.020726107 -0.059009194 -0.016938204 -0.070927985 -0.05511808 0.011066802
-0.055175927 -0.009888932 -0.089535505 -0.058929577 -0.006767983 -0.057454966 -0.03802435 -0.024661392
-0.08206025 -0.049962513 0.006494846 0.0008556801 0.008325219 -0.034141228 0.02079381 0.0028078258
-0.04466705 0.013449363 0.026436953 -0.092282034 -0.06214951 -0.02298048 0.047063895 -0.03803061
0.01375857 0.04393658 -0.011487703 0.013525672 0.03216158 0.010011992 -0.03515169 -0.025593402
0.0010198783 0.055119343 -0.062183306 0.033844084 -0.01814574 -0.09075433 -0.017095929 -0.034025855
0.008857012 -0.040577933 -0.047033064 -0.034329366 -0.051622923 0.0086392155 0.0053886324 0.01783459
0.011712685 -0.020097584 0.04233335 0.0034153163 0.0117307305 -0.050905388 -0.03079368 -0.012017071
-0.0053135827 -0.07953982 -0.031356994 -0.051877767 -0.013445675 0.03622164 -0.043459393 -0.07281815
-0.046248972 -0.0481325 -0.018114107 0.010375977 0.031693533 -0.073979884 -0.004410699 0.034955703
0.023213431 -0.004559092 -0.036163762 -0.0126139335 0.035592332 -0.03904687 -0.03626834 -0.0033275834
00000000: 7e69 44bd f7b3 47bd 3203 26bc e748 acbd
00000010: b856 0c3d 3114 673c 3976 fe3b b2ab 8ebd
00000020: ecf9 7e3d 31ba 88bd 3e93 7f3d 46ae 75bd
00000030: 9c16 64bd f83b 1d3d 1859 c8bc a04b 6c3b
00000040: 24c8 85bd 7cc5 d6bc 32d3 49bd 6da0 bbbd
00000050: 20dd 543b 801a 353c 00f0 5db8 2057 a53c
00000060: 3573 2b3d f421 883c d86d bbbc 40b6 d2bc
00000070: 4cca 23bd 29a3 97bd 40ea 24bc 401c 35bc
00000080: 04c5 e33c bd8c 6bbd 8a15 4c3d 0ae6 98bd
00000090: 0044 3a39 9e1f 663d 0690 7e3d 884a 14bd
000000a0: 6eef a2bc 50ea f13b 540d f0bc b4e4 b0bc
000000b0: 60ad 8a3c 7403 32bd a0f4 283c a84e 77bb
000000c0: 90c3 c9bc e6a4 543d a0c7 86bb 55f0 24bb
000000d0: 32c2 023d 3f35 4dbd cc1c 0b3d 22f2 43bd
000000e0: 5f42 24bd d889 2dbc e0a6 ffbc 2abf 5dbd
000000f0: 2003 703c c056 1a3b 3bb8 0f3c c47f 32bd
00000100: b05f cd3b 8475 bebc 4487 aabd 8c30 cf3c
00000110: 6807 033c 340c cdbc 181c adbc 20e6 853c
00000120: d646 2cbd 324a 273d 3036 dfbc a62d f1bb
00000130: de83 72bb 230a 37bd 4086 dd3c 32e9 3c3d
00000140: c07d 3c3b 3ce3 99bc 4af7 e8bc e3e2 4b3c
00000150: fc29 d8bc f614 08bd 181b df3c 25e1 aebd
00000160: 8056 833a d876 ebbc f6f7 283d 9458 6ebd
00000170: 9c38 1b3d 7c46 7d3d 0036 96bc 9073 88bb
00000180: 5afe 7b3d 7ce8 6abd 3e4d 11bd 1435 e0bc
00000190: 9047 21bd f431 66bc 08c3 b8bc 4430 2fbd
000001a0: ebd4 a8bd 60bb 513b 2cfc 05bd 4da8 47bc
000001b0: 9a0d 923c 9cd5 783d 18d3 89bd 6067 7fbb
000001c0: b709 64bd f8f0 6bbd 8a6e 9cbd 8a45 703d
000001d0: 7e43 153d bc82 093d 3045 0e3d a7ab a4bd
000001e0: 5014 d73b 0069 e73c b8de 0ebd 74bc 633d
000001f0: c492 863c 6e1b 343d a055 dbbc 3c86 08bb
00000200: 9bb5 aebd bc1f 0abd f011 23bc c48b 993c
00000210: 0e39 563d c08c f93c d6e5 683d c9fa 343c
00000220: e0fb 333d 2bd3 1abd 02ab 46bd 7c11 bebc
00000230: 0c37 1bbd c656 0abd 18dc 023d d8b9 b33c
00000240: 6a93 a5bc 791d 82bc 40e2 603d a306 febb
00000250: 1a7f 60bd 52d3 39bd 40b9 5ebb c88c 0b3c
00000260: b8b2 f93c 9a11 bfbd 2a41 6cbd 51a9 f13b
00000270: d2bf 233d 72ea b1bd 0059 c23c 68e5 47bd
00000280: ecde 413d 057f 39bc 2421 7d3d a61c a1bd
00000290: f271 76bd 3e37 3c3c 6048 633d 8cbc 063c
000002a0: f10e 5d3c 189f 57bd ccc9 a93c a0b3 71bd
000002b0: fdc1 8abc b142 91bd 7fc3 61bd 8851 353c
000002c0: 2700 62bd 3005 22bc 645e b7bd 2460 71bd
000002d0: f5c5 ddbb e655 6bbd 6cbf 1bbd b006 cabc
000002e0: 340f a8bd 7ea5 4cbd b8d2 d43b b84f 603a
000002f0: 8066 083c acd7 0bbd c857 aa3c 8003 383b
00000300: ccf4 36bd b85a 5c3c 4f92 d83c 5dfe bcbd
00000310: 7c90 7ebd 8f41 bcbc 12c6 403d fcc5 1bbd
00000320: a06b 613c d8f6 333d eb36 3cbc c89a 5d3c
00000330: dcbb 033d 5709 243c 38fb 0fbd 41a9 d1bc
00000340: 70ad 853a d2c4 613d ecb3 7ebd 18a0 0a3d
00000350: 60a6 94bc 68dd b9bd c30c 8cbc b25e 0bbd
00000360: 001d 113c 0c35 26bd bea5 40bd f39c 0cbd
00000370: 8f72 53bd 7f8b 0d3c 2093 b03b d919 923c
00000380: 90e6 3f3c b0a3 a4bc bc65 2d3d 80d3 5f3b
00000390: 4032 403c 2b82 50bd 0743 fcbc 40e3 44bc
000003a0: 901d aebb c6e5 a2bd 3170 00bd c87d 54bd
000003b0: 404b 5cbc 245d 143d 7a02 32bd af21 95bd
000003c0: 906f 3dbd 9626 45bd 0964 94bc 0000 2a3c
000003d0: 14d1 013d c482 97bd a087 90bb b62d 0f3d
000003e0: 182a be3c 7064 95bb 7420 14bd acaa 4ebc
000003f0: 44c9 113d 9cef 1fbd 1c8e 14bd 9613 5abb

bias f4 [256]
-0.08733565 -0.060813524 -0.11563819 0.009278057 -0.016437538 -0.015690053 0.026704803 -0.012871608
0.009217997 -0.05046906 -0.01797688 -0.004817253 -0.03575644 -0.05292505 -0.038186453 -0.056319207
-0.009171511 -0.051716663 -0.019793348 -0.096387506 -0.022283515 -0.054300398 0.00800312 -0.04479643
-0.011037206 -7.129178e-05 -0.023105653 -0.08990933 0.005761032 0.030220343 -0.05476815 -0.011243389
-0.055241555 -0.077873945 0.029884694 -0.06156767 -0.01648499 -0.05483863 -0.044739906 -0.074531734
-0.017253416 -0.00023102794 -0.094204806 0.008450935 7.6461605e-05 0.0047731646 -0.040609524 -0.046804063
-0.02252151 -0.02385449 -0.03761429 -0.036867402 -0.08827418 -0.097500965 -0.034850597 0.008078948
-0.05670356 -0.036807433 -0.03512727 -0.0400235 -0.02446078 -0.06905148 -0.026658516 -0.020372847
-0.083781585 -0.08901853 -0.07928455 -0.027493969 -0.053130016 -0.022518536 -0.047512252 0.049620755
-0.041965354 -0.06418967 -0.021298163 0.0006225736 -0.08850513 -0.077152304 -0.033972908 -0.018788
-0.06892105 0.0008538582 -0.045342147 0.005193402 -0.045958 -0.0040373113 -0.059802238 -0.028201919
-0.046108887 0.023617394 0.009040616 0.029909551 -0.0766364 0.036587402 -0.0335259 -0.020598639
-0.11389978 -0.06647968 -0.008784129 -0.123445086 0.00030952657 -0.011887194 -0.017633831 -0.008692044
-0.0434523 -0.0026297276 -0.022717403 -0.07468522 -0.025211886 -0.023530524 0.03363829 -0.017085472
-0.050704103 0.009048498 -0.0493027 -0.07528073 -0.050696943 0.025867727 0.010747363 -0.07730959
0.018744018 0.009190279 0.00022535087 0.03473735 0.00394353 0.002406662 0.018507292 0.041171752
0.019120855 -0.036024142 -0.01726035 0.016248047 -0.033808157 -0.02533124 -0.0921705 -0.08353529
-0.05850522 -0.03183946 -0.009663829 0.027446799 0.12641549 -0.03167525 -0.03210599 -0.031109054
0.005698288 0.013146376 -0.07073188 -0.03064023 -0.094958924 0.023207085 0.0065595796 -0.1389374
0.019328069 -0.08497809 -0.044438895 -0.13909155 -0.05211193 -0.03653682 0.0063624084 -0.025072262
-0.06474124 -0.028660098 0.020312985 0.01306293 -0.061523598 -0.07045931 0.020995583 -0.02665638
-0.025375191 -0.029934142 -0.09821105 -0.08391232 -0.04182881 -0.05346714 -0.009534635 -0.072028995
0.0030470144 -0.053303804 0.0047903475 -0.013390068 0.012991548 -0.066802956 -0.04844385 -4.3432323e-05
-0.08431143 -0.020281423 -0.061138093 -0.052448105 -0.018946154 -0.024255103 -0.024654405 0.0050793746
-0.044368435 0.021204557 -0.012190475 0.02184716 -0.053778477 -0.045841273 0.24155216 -0.05855095
-0.05165848 -0.025699474 0.008901186 -0.13893202 -0.08107576 0.010054805 -0.0718579 -0.05556366
0.01006013 0.017556032 -0.0074725 -0.05548449 -0.038266946 0.014438596 -0.08956104 -0.0476332
-0.087429 -0.06368588 0.046755422 0.002526813 0.0006723233 -0.0014831573 -0.07322277 -0.058397707
-0.06299312 -0.010486038 0.03889078 0.0014797256 0.017733729 -0.037871055 -0.0889807 -0.08284702
-0.008812893 -0.058398113 -0.08109311 -0.023805821 -0.05419414 -0.009496243 -0.08137792 -0.048470482
0.016494244 -0.027067563 -0.07599269 0.037747573 0.01976329 -0.042466577 -0.030172572 -0.09432121
-0.05346615 -0.05966262 -0.07137879 -0.26316267 -0.0027457343 -0.28355327 -0.020591147 -0.07329734
00000000: 09dd b2bd 9a17 79bd b7d3 ecbd fe02 183c
00000010: 04a8 86bc 6d88 80bc 08c4 da3c 70e3 52bc
00000020: 1507 173c a5b8 4ebd 4044 93bc 0cda 9dbb
00000030: 5875 12bd f0c7 58bd 6669 1cbd f8ae 66bd
00000040: 1b44 16bc dad4 53bd a925 a2bc d066 c5bd
00000050: eb8b b6bc 186a 5ebd 851f 033c 767c 37bd
00000060: 66d5 34bc 7c82 95b8 1148 bdbc 6222 b8bd
00000070: 0ac7 bc3b a790 f73c 9154 60bd 3136 38bc
00000080: f844 62bd 607c 9fbd bfd0 f43c 622e 7cbd
00000090: 880b 87bc 799e 60bd 3141 37bd 18a4 98bd
000000a0: 0957 8dbc 1740 72b9 73ee c0bd ca75 0a3c
000000b0: 035a a038 3568 9c3b 2c56 26bd 9eb5 3fbd
000000c0: 087f b8bc 7e6a c3bc 7111 1abd 4602 17bd
000000d0: 18c9 b4bd 96ae c7bd 80bf 0ebd 905d 043c
000000e0: fe41 68bd 64c3 16bd 9de1 0fbd aeef 23bd
000000f0: f961 c8bc dd6a 8dbd f662 dabc f5e4 a6bc
00000100: ae95 abbd 594f b6bd f05f a2bd 083b e1bc
00000110: dc9e 59bd cb78 b8bc 359c 42bd 223f 4b3d
00000120: dde3 2bbd e075 83bd 7c79 aebc 3534 233a
00000130: 2d42 b5bd 0702 9ebd 2d27 0bbd 4be9 99bc
00000140: 7b26 8dbd 74d5 5f3a b0b8 39bd 6a2d aa3b
00000150: 753e 3cbd 6c4b 84bb 31f3 74bd b607 e7bc
00000160: acdc 3cbd 4479 c13c 181f 143c e004 f53c
00000170: 8bf3 9cbd acdc 153d 7452 09bd 7abe a8bc
00000180: 4a44 e9bd 8026 88bd 4feb 0fbc c7d0 fcbd
00000190: f447 a239 81c2 42bc d374 90bc 1369 0ebc
000001a0: 0afb 31bd 8257 2cbb d919 babc 91f4 98bd
000001b0: 2889 cebc 16c3 c0bc 4ec8 093d d5f6 8bbc
000001c0: 1baf 4fbd 2740 143c a1f1 49bd c92c 9abd
000001d0: 99a7 4fbd 8ee8 d33c b515 303c 7e54 9ebd
000001e0: 0e8d 993c d392 163c 2a4c 6c39 c048 0e3d
000001f0: ba38 813b 17b9 1d3b 9b9c 973c b6a3 283d
00000200: 57a3 9c3c 0d8e 13bd 9465 8dbc a01a 853c
00000210: 6c7a 0abd 7683 cfbc e3c3 bcbd 8d14 abbd
00000220: 2ba3 6fbd 186a 02bd 0955 1ebc 1cd8 e03c
00000230: 1073 013e e8bd 01bd 9281 03bd 6ad8 febc
00000240: b4b8 ba3b e663 573c e0db 90bd 3801 fbbc
00000250: d379 c2bd c91c be3c bef1 d63b 9b45 0ebe
00000260: e655 9e3c fe08 aebd 8f05 36bd 046e 0ebe
00000270: 5273 55bd a2a7 15bd c07b d03b 5864 cdbc
00000280: 0e97 84bd 95c8 eabc 6b67 a63c e605 563c
00000290: 2b00 7cbd f94c 90bd eefe ab3c 7b5e dabc
000002a0: a2df cfbc 7238 f5bc e022 c9bd 39da abbd
000002b0: b054 2bbd 5c00 5bbd 2837 1cbc f083 93bd
000002c0: 6bb0 473b 1755 5abd 59f8 9c3b 0462 5bbc
000002d0: 80da 543c fdcf 88bd 0f6d 46bd 1a2b 36b8
000002e0: 79ab acbd 3a25 a6bc f06b 7abd d3d3 56bd
000002f0: f734 9bbc a3b2 c6bc 09f8 c9bc e270 a63b
00000300: adbb 35bd 2eb5 ad3c 8fba 47bc d1f8 b23c
00000310: d246 5cbd 0fc4 3bbd 7359 773e 1fd3 6fbd
00000320: d897 53bd b487 d2bc 48d6 113c 3244 0ebe
00000330: 0c0b a6bd e9bc 243c 3c2a 93bd b896 63bd
00000340: 3ed3 243c abd1 8f3c e0db f4bb b443 63bd
00000350: cdbd 1cbd dc8f 6c3c c76b b7bd 081b 43bd
00000360: fa0d b3bd be6d 82bd 9d82 3f3d e398 253b
00000370: da3e 303a 8066 c2ba d2f5 95bd 6f32 6fbd
00000380: 8902 81bd a2cd 2bbc f04b 1f3d 5af3 c13a
00000390: 5346 913c ae1e 1bbd 833b b6bd b3ab a9bd
000003a0: f463 10bc dc32 6fbd 2514 a6bd 6d04 c3bc
000003b0: adfa 5dbd 2196 1bbc 78a9 a6bd fc88 46bd
000003c0: f01e 873c cbbc ddbc 0ea2 9bbd 339d 1a3d
000003d0: a0e6 a13c 6ff1 2dbd 782c f7bc 7b2b c1bd
000003e0: 52ff 5abd cb60 74bd 0b2f 92bd 42bd 86be
000003f0: c7f1 33bb e52d 91be c4ae a8bc ea1c 96bd

weight f4 [1, 256]
0.019351384 0.0050772578 0.0017366693 -0.008135711 -0.008042379 -0.023655528 0.023690028 0.0011651228
0.016523086 0.026395695 -0.030492492 -0.00033739145 0.04374382 0.013538776 0.03722709 0.021918416
0.026682219 -0.0009032991 -0.030487265 -0.011513238 -0.00020783136 -0.008911356 -0.029161764 0.04944906
-0.028457422 0.01947125 -0.011059509 0.049966384 1.767604 -0.0062643224 0.004374011 0.036753755
0.026747286 0.025480706 0.001431608 0.023082668 0.008425735 0.032127187 -0.026688486 0.0081331935
0.020686481 0.013888211 -0.04152077 -0.032312285 0.0019275537 0.025806656 0.05640289 0.005006213
0.01287442 0.001693581 0.035576668 -0.015983814 -0.014785186 -0.010140531 0.028103523 -0.0048746318
-0.00049518555 0.028852 0.015341643 0.011468821 0.039373662 -0.0296572 0.04450896 0.026627215
0.0047408887 -0.017308068 0.0034498249 -0.046327285 0.012500366 0.006973811 0.0070685335 0.012017553
0.017427782 0.01865242 -0.024982888 -0.038185496 0.014882083 -0.034012955 0.014426581 -0.010280888
0.019252388 0.02287229 0.05659944 -0.006368151 0.047970336 -0.00051900995 -0.018400041 0.018093614
0.011419715 -0.006105987 -0.0010651664 0.0033852083 0.012540493 0.032163553 0.010761357 0.030973794
0.048715375 -0.010808669 -0.0025188855 0.0024361466 0.0006341259 0.03075971 0.0064589414 -0.032176673
-0.01199712 -0.0016739564 0.020532392 0.023013698 0.0060514645 -0.008461343 -0.0033533894 0.037977893
-0.014811713 0.020345656 0.0218851 0.06342229 0.01338957 0.004808088 -0.04824011 -0.059398443
-0.011186283 -0.035344634 0.022678915 -0.040108316 -0.0064511113 0.00016620917 0.008005784 -0.035744533
-0.018426066 0.025645697 -0.009885413 -0.00045594026 0.013146013 -0.036995254 -0.054280493 -0.0025857496
0.027800627 -0.035812415 0.037071224 -0.009075671 -0.29280013 0.014584451 -0.012253499 -0.044434175
0.00015741876 0.008139153 -0.02544275 -0.02590157 0.025175627 0.023754587 -0.008261829 -0.16725063
-0.010217477 0.031694014 0.017319176 -0.4638568 0.014512092 0.007601583 0.032564156 0.008009325
0.0043589487 0.0052396893 0.02058686 -0.013144723 0.022047302 0.03609991 -0.0058684195 -0.029103938
0.025908405 0.02344464 -0.00018837674 0.012118324 0.01100027 0.060940072 0.008865498 -0.0051781256
-0.023996731 0.030348843 -0.001200215 -0.016442241 0.0010026917 0.023129772 0.030434733 0.010391455
0.001124851 -0.009913307 0.024835639 0.006133146 -0.0021077248 0.02214961 -0.0037403232 -0.011354458
0.0048613623 0.023079034 -0.024378506 -0.019967102 -0.044460244 0.039794788 -0.37767133 0.019420872
0.0005174771 0.21426412 0.012602418 -0.16274491 -0.007214695 -0.01686804 0.003148651 0.021893824
-0.018582199 0.0019816316 -0.029699828 0.05351015 -0.00149708 -0.0013111333 -0.0051511102 -0.011116026
0.0076994672 -0.10599378 0.012117572 -0.019675575 0.0173589 0.0035582182 0.01099764 -0.019269384
0.019561 0.004811521 0.006796774 -0.03070306 0.00020736222 -0.032310374 -0.0075732535 0.02346503
0.014362458 0.04382416 -0.036673665 -0.02829952 0.0076988596 0.022570312 0.03051678 0.019690864
-0.023577686 0.004819941 -0.011633868 0.00010751943 -0.050816253 0.017674519 0.057126846 -0.025747975
0.0065544173 -0.0142491525 -0.017673165 0.25928402 0.01731642 -1.7280042 -0.010210499 0.011398102
00000000: cb86 9e3c 205f a63b f4a0 e33a a54b 05bc
00000010: 2fc4 03bc 3dc9 c1bc 9711 c23c 09b7 983a
00000020: 6c5b 873c c93b d83c 64cb f9bc eae3 b0b9
00000030: b82c 333d bed1 5d3c 6f7b 183d 408e b33c
00000040: ab94 da3c 60cb 6cba 6ec0 f9bc 05a2 3cbc
00000050: 4eed 59b9 f000 12bc a7e4 eebc 198b 4a3d
00000060: 8a1f e9bc 2c82 9f3c f132 35bc 8da9 4c3d
00000070: d940 e23f f244 cdbb dd53 8f3b 1b8b 163d
00000080: 201d db3c eabc d03c cba4 bb3a dd17 bd3c
00000090: 180c 0a3c cc97 033d d0a1 dabc 1641 053c
000000a0: b276 a93c 618b 633c af11 2abd e359 04bd
000000b0: f8a5 fc3a 7b68 d33c b706 673d 290b a43b
000000c0: 3bef 523c 26fb dd3a d7b8 113d 7df0 82bc
000000d0: 913d 72bc 7824 26bc 5c39 e63c 60bb 9fbb
000000e0: 57cf 01ba 085b ec3c 845b 7b3c b9e7 3b3c
000000f0: 4746 213d a8f3 f2bc 074f 363d 5121 da3c
00000100: 7559 9b3b a6c9 8dbc 7516 623b aec1 3dbd
00000110: 56ce 4c3c 9184 e43b 289f e73b 45e5 443c
00000120: b5c4 8e3c f6cc 983c eaa8 ccbc 6568 1cbd
00000130: fbd3 733c 2b51 0bbd 775d 6c3c 2b71 28bc
00000140: 2fb7 9d3c ab5e bb3c d0d4 673d ecab d0bb
00000150: 8b7c 443d 2b0e 08ba afbb 96bc 0f39 943c
00000160: c219 3b3c bb14 c8bb 0e9d 8bba 5fda 5d3b
00000170: a476 4d3c eebd 033d 6750 303c c1bc fd3c
00000180: c689 473d d816 31bc e313 25bb c2a7 1f3b
00000190: 783b 263a cafb fb3c 87a5 d33b b0cb 03bd
000001a0: 928f 44bc a868 dbba 8c33 a83c 3987 bc3c
000001b0: 5d4b c63b 72a1 0abc 8ac4 5bbb b58e 1b3d
000001c0: d4ac 72bc efab a63c 6248 b33c 8ce3 813d
000001d0: ed5f 5b3c 2a8d 9d3b 6c97 45bd c84b 73bd
000001e0: ac46 37bc 89c5 10bd 22c9 b93c 9e48 24bd
000001f0: d863 d3bb 6f48 2e39 b12a 033c dc68 12bd
00000200: 43f2 96bc ed16 d23c 6df6 21bc 440b efb9
00000210: 6062 573c 5688 17bd 3955 5ebd ae75 29bb
00000220: 24be e33c 0ab0 12bd ffd7 173d 20b2 14bc
00000230: e6e9 95be 9ff3 6e3c e6c2 48bc 9c00 36bd
00000240: c710 2539 155a 053c 506d d0bc 882f d4bc
00000250: 1e3d ce3c fb98 c23c 9f5c 07bc c043 2bbe
00000260: 3467 27bc 95d1 013d f2e0 8d3c a37e edbe
00000270: 20c4 6d3c b316 f93b fe61 053d 8b39 033c
00000280: 83d5 8e3b b3b1 ab3b c6a5 a83c f75c 57bc
00000290: 8b9c b43c 80dd 133d df4b c0bb 626b eebc
000002a0: dd3d d43c f90e c03c ff86 45b9 ef8b 463c
000002b0: 7a3a 343c 4c9c 793d 9840 113c 44ad a9bb
000002c0: cb94 c4bc 239e f83c 8850 9dba e1b1 86bc
000002d0: c06c 833a a67a bd3c 4352 f93c ec40 2a3c
000002e0: bd6f 933a 6c6b 22bc 1c74 cb3c 8ff8 c83b
000002f0: c121 0abb 1973 b53c 3620 75bb 0c08 3abc
00000300: 104c 9f3b 3e10 bd3c 6fb5 c7bc 0c92 a3bc
00000310: f21b 36bd dcff 223d 235e c1be 8518 9f3c
00000320: 4da7 073a 0e68 5b3e 5f7a 4e3c 9aa6 26be
00000330: 4069 ecbb d82e 8abc 9959 4e3b ad5a b33c
00000340: b239 98bc 43de 013b 0e4d f3bc 762d 5b3d
00000350: ab39 c4ba 55da abba a5ca a8bb fe1f 36bc
00000360: d04b fc3b 4413 d9bd c888 463c ac2e a1bc
00000370: 4034 8e3c ff30 693b 722f 343c d4da 9dbc
00000380: 643e a03c f7a9 9d3b 79b7 de3b fc84 fbbc
00000390: 5f6f 5939 e257 04bd 0e29 f8bb bc39 c03c
000003a0: 8450 6b3c f680 333d 2037 16bd 65d4 e7bc
000003b0: b746 fc3b 60e5 b83c 54fe f93c bc4e a13c
000003c0: fe25 c1bc 98f0 9d3b fb9b 3ebc 0e7c e138
000003d0: b424 50bd 27ca 903c d7fd 693d 6bed d2bc
000003e0: 70c6 d63b 4775 69bc 50c7 90bc e0c0 843e
000003f0: 2adb 8d3c 3e2f ddbf f049 27bc 1bbf 3a3c

weight f4 [1, 256]
-0.031479836 -0.01737608 -0.005079523 -0.0011625869 -0.046090245 0.028177608 -0.030403977 -0.0010310326
0.004400838 -0.07674893 0.03938853 0.0018270974 0.028596453 0.01527381 0.026611429 -0.050890088
-0.013437161 -0.013021803 0.03243731 -0.02908736 0.013766759 0.03939952 0.037549816 -0.03988951
0.03433225 0.0054768412 0.027742816 0.020294229 -0.19972794 0.009012683 0.040983137 -0.013650543
0.017896853 -0.0056373784 -0.0042614858 -0.008362584 -0.030426115 0.01315287 0.020237755 0.004918832
0.02711489 0.03320054 -0.002451445 -0.019873226 -0.008332062 0.015318275 -0.025264915 0.0452234
0.014745983 -0.008955063 0.0026646873 0.026363688 -0.017447367 0.085305765 0.03139858 0.021726415
0.029094597 -0.027795617 0.048697554 0.014112396 -0.07189295 0.004753139 0.029220195 0.032866392
0.010964556 -0.04558344 -0.012606436 -8.030974e-05 0.00048339338 0.02589625 0.0051798644 0.08438352
0.029685223 0.014952706 -0.034959354 0.03135724 -0.016932694 0.03511889 0.0051740333 -0.040392954
0.07346956 0.027243111 -0.051211864 0.017917328 0.0026058385 -0.022416621 0.015535775 0.004185975
0.025885079 0.02410127 0.009511811 -0.010241576 0.005197108 -0.0040749526 -0.00067216705 -0.0147940265
-0.012624218 -0.026254343 0.033099964 -0.023686735 -0.00095194724 -0.039208006 -0.019432051 0.017029338
0.009053529 -0.0005420514 0.025905209 -0.0062905937 0.03235844 -0.0077859885 0.0019458103 0.044922523
0.08777442 0.031839207 -0.021562226 -0.008644173 0.02069454 -0.010521175 0.017555214 0.018767543
-0.012467969 0.024016425 -0.01861671 0.024220765 -0.03128176 0.0012045355 0.019685753 -0.022302631
0.06004056 -0.04813197 -0.054525677 -0.019531976 0.028391644 -0.029721355 -0.044094663 0.052518036
-0.0074116476 -0.023514306 -0.0313601 -0.012852065 -0.3022532 -0.00413551 -0.00043045965 0.02924882
-0.0034568107 0.00076141726 -0.062585354 0.048435636 0.012038973 -0.030439096 -0.074878976 -0.80446726
-0.078087844 -0.002410758 0.0067855986 -0.2917623 0.06232205 -0.021872116 0.01911569 -0.013052524
-0.01648035 -0.012197306 0.021442816 0.0083207125 -0.013674899 0.038471222 -0.030728552 0.0027062183
-0.00836 0.1288857 -0.013673699 0.020087816 0.010531747 -0.043795325 -0.057977922 -0.059479404
-0.011559025 0.035360653 0.022828355 -0.012426021 -0.023648161 0.043084744 0.079856254 -0.058889154
-0.026164409 0.0016146395 -0.022137024 -0.016570576 -0.014679834 -0.0022067449 0.049343362 -0.032772105
0.021730188 -0.014336036 -0.020658383 0.008131236 0.022744 -0.00587839 0.15334348 0.040289894
0.06851848 -0.22871178 0.0401609 -0.63760614 -0.025020251 0.033697415 0.020266633 -0.012195887
-0.03588756 0.010405033 0.016246943 0.05679322 0.001504896 -0.014262587 -0.04604857 0.039549712
-0.032534905 0.0059767696 -0.033163097 0.061201364 -0.008523186 -0.062163237 -0.036191348 -0.011498631
0.006498102 -0.00078191224 0.008970677 0.014966693 -0.0025877184 0.0112362085 -0.031707287 0.051536236
-0.00991431 0.023833737 0.04124058 0.0024313354 0.026853628 -0.020840164 0.066597044 0.12041421
-0.014335233 0.045841556 0.017026518 0.0035920518 -0.029101938 -0.055855833 0.047656745 0.041311502
-0.056984596 0.050958138 0.06515551 0.14312285 -0.01566315 0.43430874 0.050202943 0.010883227
00000000: 00f1 00bd 4858 8ebc 2172 a6bb f161 98ba
00000010: 20c9 3cbd bad4 e63c c311 f9bc b723 87ba
00000020: e834 903b 8b2e 9dbd de55 213d 377b ef3a
00000030: 1c43 ea3c 013f 7a3c 3600 da3c 2072 50bd
00000040: 8a27 5cbc 6759 55bc fcdc 043d 9d48 eebc
00000050: f98d 613c 6461 213d d6cd 193d 2f63 23bd
00000060: f99f 0c3d 1377 b33b e744 e33c 1540 a63c
00000070: 7b85 4cbe efa9 133c efdd 273d 87a6 5fbc
00000080: 6c9c 923c c2b9 b8bb efa3 8bbb 3803 09bc
00000090: 3040 f9bc 237f 573c a6c9 a53c 272e a13b
000000a0: 0c20 de3c 4afd 073d 6ca8 20bb 2dcd a2bc
000000b0: 3383 08bc 81f9 7a3c 5ef8 cebc 2c3c 393d
000000c0: 2399 713c 42b8 12bc 09a2 2e3b a9f8 d73c
000000d0: c8ed 8ebc cab4 ae3d cc9b 003d 98fb b13c
000000e0: cb57 ee3c a2b3 e3bc 1677 473d ae37 673c
000000f0: 9c3c 93bd 38c0 9b3b 315f ef3c e99e 063d
00000100: aea4 333c b4b5 3abd 3a8b 4ebc f76b a8b8
00000110: f66f fd39 5f24 d43c dabb a93b 44d1 ac3d
00000120: 6d2e f33c 32fc 743c 8a31 0fbd 7370 003d
00000130: 6fb6 8abc d3d8 0f3d f08a a93b 1573 25bd
00000140: 3577 963d f22c df3c 88c3 51bd 5cc7 923c
00000150: b7c6 2a3b 10a3 b7bc c389 7e3c 812a 893b
00000160: f20c d43c 0770 c53c 6dd7 1b3c 48cc 27bc
00000170: 804c aa3b 2e87 85bb 5e34 30ba a562 72bc
00000180: cfd5 4ebc 5913 d7bc d493 073d af0a c2bc
00000190: 198c 79ba 9398 20bd f72f 9fbc 1c81 8b3c
000001a0: 4155 143c 7418 0eba 2937 d43c 5321 cebb
000001b0: 498a 043d 9b21 ffbb 8f0a ff3a ae00 383d
000001c0: 13c3 b33d d469 023d 44a3 b0bc 4aa0 0dbc
000001d0: 9987 a93c 0261 2cbc f4cf 8f3c 64be 993c
000001e0: 7446 4cbc 18be c43c 1282 98bc a06a c63c
000001f0: 4e21 00bd 81e1 9d3a 0444 a13c 02b4 b6bc
00000200: 17ed 753d 0726 45bd 5156 5fbd 8601 a0bc
00000210: 9895 e83c 337a f3bc 9b9c 34bd 271d 573d
00000220: 68dd f2bb 13a1 c0bc 7373 00bd 7891 52bc
00000230: eec0 9abe 2c83 87bb 51af e1b9 399b ef3c
00000240: a98b 62bb d999 473a c02c 80bd 7264 463d
00000250: 1d3f 453c 695b f9bc 265a 99bd 91f1 4dbf
00000260: 85ec 9fbd cffd 1dbb ba59 de3b de61 95be
00000270: 6845 7f3d 272d b3bc 8298 9c3c 41da 55bc
00000280: cd01 87bc 36d7 47bc d8a8 af3c 9953 083c
00000290: af0c 60bc 0094 1d3d 72ba fbbc cf5a 313b
000002a0: 62f8 08bc 9dfa 033e a707 60bc 348f a43c
000002b0: 598d 2c3c ba62 33bd 427a 6dbd ada0 73bd
000002c0: 1162 3dbc 55d6 103d 8802 bb3c 8296 4bbc
000002d0: cab9 c1bc a179 303d ad8b a33d c135 71bd
000002e0: be56 d6bc 50a2 d33a b458 b5bc 04bf 87bc
000002f0: b083 70bc 099f 10bb 441c 4a3d 0b3c 06bd
00000300: 8203 b23c b1e1 6abc c53b a9bc e038 053c
00000310: a051 ba3c 829f c0bb 1306 1d3e 0407 253d
00000320: 6b53 8c3d 6c33 6abe c27f 243d 283a 23bf
00000330: 45f7 ccbc 4d06 0a3d 3606 a63c 42d1 47bc
00000340: d6fe 12bd df79 2a3c 4f18 853c 02a0 683d
00000350: ee3f c53a a0ad 69bc 6d9d 3cbd e1fe 213d
00000360: 5243 05bd c7d8 c33b 07d6 07bd 48ae 7a3d
00000370: d5a4 0bbc e19e 7ebd 613d 14bd c164 3cbc
00000380: 08ee d43b 3ef9 4cba bff9 123c dc36 753c
00000390: b696 29bb 1318 383c 80df 01bd a917 533d
000003a0: a16f 22bc f83e c33c e2eb 283d 0a57 1f3b
000003b0: 24fc db3c feb8 aabc 0864 883d ba9b f63d
000003c0: 53de 6abc 5bc4 3b3d 327b 8b3c a168 6b3b
000003d0: 3067 eebc 16c9 64bd b833 433d 4036 293d
000003e0: ae68 69bd 7bb9 503d 4170 853d cc8e 123e
000003f0: 0250 80bc b75d de3e 9aa1 4d3d 904f 323c

weight f4 [256, 3]
0.19060789 -1.2353997 -0.62033033 0.53108287 -1.2379669 0.51515996 -0.040317252 -1.1665375
-0.7230583 -0.69393027 0.53087795 -0.004710747 0.14321667 0.5416355 0.1589731 -0.2632452
-0.48505926 -0.102852575 0.15514663 -1.4010415 0.57014513 -0.30261186 0.33071786 0.03170527
-0.75464493 3.0145612 -0.26413804 -0.003998211 3.0696685 -0.43384248 0.08894527 2.7132232
0.13898459 0.18566939 -1.3032546 0.36660576 0.851971 2.1608527 0.16732086 0.29684073
-0.36904377 -0.3722125 -0.5886309 -3.876352 -0.0034264552 0.16101587 4.271345 0.01836351
-0.66921854 2.6023507 0.42541853 -0.029588187 -2.467827 0.08574719 -0.5640055 -3.5155215
0.0035097096 0.8155538 2.6279314 -0.01915925 0.00195539 0.15768719 -0.15193018 -0.598816
2.365272 -0.010246103 0.23380436 -1.7682811 0.4696689 -0.2711589 -8.725528 -0.014552517
-0.11513771 3.920289 -0.26687133 0.34618264 -0.5044291 0.026671126 0.3588805 0.37439454
-0.43728182 -0.06922176 0.6198267 -0.08295596 0.43339455 -1.078936 -0.15598376 -0.5877945
-4.536744 -0.006369817 -0.08803684 0.36090127 -0.4137512 -0.052721087 -2.5022779 0.1941614
-0.23955038 0.33708996 0.019874454 -0.23796332 3.8290215 -0.15630658 -0.1421633 3.896456
-0.11039542 0.17151995 4.3247027 0.037574053 0.4377911 0.33900875 0.040919542 0.02320654
-1.6276066 0.2748988 0.2721003 0.26413965 0.017869253 0.5447068 -0.34892595 -0.06649399
0.22068888 0.27542 0.04802829 0.8881502 2.4718862 0.05080679 0.5632394 -2.0297558
0.47334892 -1.4378347 -0.7182899 -0.003841214 0.30048567 -2.0293396 0.07770308 0.20674749
3.2002046 -0.07007574 -0.25133023 3.757363 0.5048855 0.13164449 -0.39228478 -0.2732598
-0.6493673 0.7484991 0.015296261 0.36615795 2.5370557 0.22757453 0.3917191 -0.2848375
0.18325906 0.9626384 1.8184376 0.13841125 0.898963 2.4705732 0.010679676 -0.5137447
-0.49523565 0.48601142 -0.06488414 2.997429 0.061393548 0.85659677 2.8349779 0.49123165
0.19749437 -1.1812884 0.4625758 -0.8575142 2.7881439 0.35441545 0.6120323 2.092679
0.4875547 0.018100208 0.10206332 -0.029019509 -0.031957798 -2.0846434 -0.3029582 0.5734176
2.8679023 -0.040412672 0.16263013 -0.23550814 -0.25081488 0.66171044 -1.3276566 0.41740218
-0.14124435 -0.2801895 -0.08994438 0.4835776 -0.47187054 0.24863517 0.3047419 -1.8825008
-0.51001984 0.21071133 -2.2049265 -0.096131206 -0.14324686 0.39307225 -0.06243832 0.31628105
3.9268842 0.029683694 0.18481347 0.38657752 0.19307382 0.45449215 0.6586097 -0.395373
-0.4490611 -8.618659 0.0029100028 -0.15282461 -0.2921493 -0.3206136 0.062506035 -2.5761251
-0.7097853 -0.39421016 -2.2858717 -0.36454472 -0.30429378 3.3615053 -0.0036175956 0.47969103
0.26139015 0.28191507 0.08802202 4.038233 -0.00623979 0.5605465 0.67086595 -0.33856606
0.22256318 -1.5088309 -0.19397621 0.1496451 0.38233852 -0.24068096 0.13179317 -2.4013262
-0.11394084 0.8694 1.3853899 0.1604139 -0.08391161 3.2435002 -0.14103888 0.15295544
00000000: b72e 433e 9421 9ebf f8cd 1ebf 0cf5 073f
00000010: b375 9ebf 86e1 033f b423 25bd 1a51 95bf
00000020: 591a 39bf 6aa5 31bf 9ee7 073f 9c5c 9abb
00000030: 64a7 123e a0a8 0a3f d8c9 223e 13c8 86be
00000040: b059 f8be 5fa4 d2bd c2de 1e3e 5455 b3bf
00000050: 08f5 113f f1ef 9abe da53 a93e 63dd 013d
00000060: 6930 41bf 92ee 4040 1a3d 87be 6d03 83bb
00000070: 7375 4440 9a20 debe f028 b63d 73a5 2d40
00000080: fa51 0e3e 1e20 3e3e 0cd1 a6bf c0b3 bb3e
00000090: c51a 5a3f 694b 0a40 2956 2b3e 82fb 973e
000000a0: 4ef3 bcbe a392 bebe 84b0 16bf 2716 78c0
000000b0: 618e 60bb 58e1 243e dcae 8840 126f 963c
000000c0: e851 2bbf ea8c 2640 75d0 d93e ed62 f2bc
000000d0: e1f0 1dc0 399c af3d aa62 10bf 4efe 60c0
000000e0: 2803 663b 22c8 503f 0730 2840 dcf3 9cbc
000000f0: 0026 003b c078 213e 9693 1bbe 014c 19bf
00000100: 9e60 1740 45df 27bc 696a 6f3e 0957 e2bf
00000110: 7178 f03e 57d5 8abe c39b 0bc1 ae6d 6ebc
00000120: 52cd ebbd 04e6 7a40 5ca3 88be da3e b13e
00000130: 4422 01bf 687d da3c 2fbf b73e a4b0 bf3e
00000140: 67e3 dfbe 23c4 8dbd f6ac 1e3f d0e4 a9bd
00000150: e4e5 dd3e 931a 8abf 35ba 1fbe b379 16bf
00000160: 022d 91c0 e6b9 d0bb a94c b4bd 0dc8 b83e
00000170: 33d7 d3be 11f2 57bd 5225 20c0 3fd2 463e
00000180: b24c 75be 0e97 ac3e c0cf a23c a8ac 73be
00000190: b00e 7540 d50e 20be 4293 11be 895f 7940
000001a0: fe16 e2bd eda2 2f3e f763 8a40 40e7 193d
000001b0: 2826 e03e 8e92 ad3e 409b 273d a41b be3c
000001c0: 6a55 d0bf 89bf 8c3e bb50 8b3e 503d 873e
000001d0: 8a62 923c e871 0b3f 6ca6 b2be 002e 88bd
000001e0: 44fc 613e da03 8d3e 50b9 443d d05d 633f
000001f0: 6233 1e40 c81a 503d 7530 103f 85e7 01c0
00000200: ca5a f23e f80a b8bf d9e1 37bf e1bc 7bbb
00000210: 42d9 993e b3e0 01c0 cb22 9f3d 9db5 533e
00000220: 27d0 4c40 df83 8fbd 5bae 80be a378 7040
00000230: 2d40 013f d0cd 063e 8dd9 c8be b5e8 8bbe
00000240: ef3c 26bf a39d 3f3f 2b9d 7a3c 0e79 bb3e
00000250: 1f5f 2240 4c09 693e 688f c83e 39d6 91be
00000260: 43a8 3b3e 786f 763f 90c2 e83f aebb 0d3e
00000270: 7022 663f df1d 1e40 cff9 2e3c c684 03bf
00000280: 878f fdbe 7dd6 f83e fae1 84bd e0d5 3f40
00000290: cd77 7b3d ed49 5b3f 4770 3540 b782 fb3e
000002a0: f73b 4a3e 7534 97bf bcd6 ec3e 0d86 5bbf
000002b0: f370 3240 f175 b53e 26ae 1c3f 74ee 0540
000002c0: c5a0 f93e e346 943c 9306 d13d 52ba edbc
000002d0: 2ee6 02bd cc6a 05c0 561d 9bbe 7fcb 123f
000002e0: b68b 3740 c287 25bd 8388 263e 0c29 71be
000002f0: cf6a 80be db65 293f a7f0 a9bf bdb5 d53e
00000300: 5ca2 10be 0075 8fbe c234 b8bd 7c97 f73e
00000310: 0499 f1be 389a 7e3e 2107 9c3e c9f5 f0bf
00000320: a990 02bf b6c4 573e 841d 0dc0 70e0 c4bd
00000330: 4eaf 12be c440 c93e 53bf 7fbd 97ef a13e
00000340: 1252 7b40 382b f33c be3f 3d3e 7ded c53e
00000350: 25b5 453e 32b3 e83e a59a 283f 546e cabe
00000360: 56eb e5be 07e6 09c1 bfb5 3e3b 0e7e 1cbe
00000370: 9894 95be 7727 a4be 2a03 803d 3cdf 24c0
00000380: 7db4 35bf ead5 c9be b94b 12c0 9ba5 babe
00000390: 65cc 9bbe e722 5740 2f15 6dbb 109a f53e
000003a0: eed4 853e 2c57 903e e444 b43d 3439 8140
000003b0: 2777 ccbb fa7f 0f3f dfbd 2b3f 8858 adbe
000003c0: 9ae7 633e 5f21 c1bf b3a1 46be 913c 193e
000003d0: e0c1 c33e 1275 76be caf4 063e 54af 19c0
000003e0: d159 e9bd 0091 5e3f 7554 b13f 8b43 243e
000003f0: dad9 abbd 8295 4f40 7f6c 10be 5aa0 1c3e

bias f4 [256]
-0.3516013 -0.24005061 -0.21345188 -0.70146644 -0.49971852 -0.50340617 0.07057458 -0.47116423
-0.09336539 -0.05113772 0.5385297 0.78072256 -0.15227072 -0.47019568 0.30329052 -0.06829078
-0.53089297 0.4768671 0.28541097 0.34117845 -0.36694187 0.035632387 -0.23801674 0.21715707
0.4107956 -0.1648515 -0.59436995 -0.16209678 0.57725966 0.30816436 -0.51853585 0.52953196
-0.5442517 0.2514487 0.24964212 -0.03342618 -0.551159 0.46422338 -0.15502988 -0.46997786
-0.34815833 -0.111269996 -0.19496351 -0.40416467 0.5536985 -0.04889634 -0.024000775 -0.38935384
-0.6146311 0.6741211 -0.36743203 -0.2953614 0.34489638 -0.60808516 0.29130593 -0.16289327
0.20611843 -0.11843666 0.07592606 -0.06062149 0.75327957 0.39301687 -0.35066554 -0.53312063
-0.3663901 -0.45756006 -0.368019 0.51022834 -0.23416778 0.030730866 -0.30062667 -0.3155309
0.20540088 -0.61959493 -0.3816859 0.49008095 0.10980504 -0.5082368 0.07598784 -0.2664109
0.5556739 -0.3404508 0.52221954 -0.28152302 0.30724266 -0.16581173 -0.2655507 -0.25584507
0.10729261 0.41838017 -0.6148955 -0.41928685 -0.42786425 0.07207572 0.50081205 0.6167219
-0.15065897 0.013447611 0.5878352 -0.39608952 -0.039499238 -0.24033287 -0.5083794 -0.60673314
0.105155975 -0.2975157 -0.3770901 -0.48034492 0.117572166 -0.39894876 -0.20477977 -0.57607824
0.17962605 -0.35783806 -0.29526517 0.003178425 0.4182292 0.27922058 -0.29618764 -0.0046956916
-0.480572 -0.5577009 -0.17529601 -0.5261996 -0.38809013 0.7612726 0.0127383275 -0.38291717
-0.52456135 0.10513394 0.16922861 0.0070295697 0.48909584 -0.01954595 0.29711032 -0.109477125
-0.024211489 -0.65427345 -0.187883 0.51518947 0.13538705 -0.39499408 -0.14001063 -0.14779122
-0.5290555 0.22108683 0.29356727 -0.031947058 0.25012517 0.12854451 -0.4600675 -0.5069245
-0.32648125 0.39178628 -0.44240063 -0.604552 -0.38185725 -0.16179588 0.3752059 0.2861228
-0.52829504 0.28992352 0.50933206 -0.13377517 0.44646943 0.23222443 0.2064788 -0.26926047
0.44405666 -0.2950791 0.115283825 -0.20345497 0.46334416 0.21519713 -0.514074 0.41174853
-0.12346474 0.39290324 -0.55796885 -0.57130736 -0.49893475 0.16744573 -0.12891224 -0.39609173
-0.4004682 0.007978615 0.17885867 -0.40474406 -0.12253231 -0.33933082 0.43550307 -0.11704947
0.48762935 0.56796235 -0.38154817 -0.5442658 -0.26478267 -0.29955405 0.24560054 0.45194697
0.1760563 0.12763208 -0.48566005 0.11307683 -0.39312017 -0.2057825 -0.45937347 0.22514814
-0.0012684882 -0.24160165 -0.67173314 -0.53574026 0.21106668 -0.40893343 0.5945913 -0.38584155
-0.56269056 -0.34121612 -0.07361883 -0.24961527 -0.38339716 -0.0703109 -0.48753428 0.31331417
-0.09663941 0.07280473 -0.391163 0.47160703 -0.10268459 0.3523368 0.4806019 0.16064939
-0.22753699 -0.0012804281 -0.41614917 -0.0056848084 0.34785113 -0.015538521 0.2161609 -0.25593773
0.21747775 -0.15835959 -0.10686714 -0.2680357 0.6059345 -0.48078406 -0.31361744 0.20953162
-0.052465614 -0.5012823 0.44998825 -0.1701686 -0.28033492 0.4991338 0.35827625 0.5139662
00000000: 1605 b4be d4cf 75be 2193 5abe 4e93 33bf
00000010: 1bdb ffbe 3adf 00bf 6889 903d 703c f1be
00000020: 5b36 bfbd c975 51bd 15dd 093f 6fdd 473f
00000030: dbec 1bbe 7dbd f0be e548 9b3e 09dc 8bbd
00000040: 9ae8 07bf ed27 f43e 6321 923e f1ae ae3e
00000050: cedf bbbe 44f3 113d a9ba 73be 6c5e 5e3e
00000060: cd53 d23e d5ce 28be a128 18bf b3fc 25be
00000070: 4ac7 133f b8c7 9d3e c4be 04bf 688f 073f
00000080: 1454 0bbf e2bd 803e 2fa2 7f3e e4e9 08bd
00000090: c218 0dbf b0ae ed3e 27c0 1ebe f0a0 f0be
000000a0: cf41 b2be 86e1 e3bd 84a4 47be acee cebe
000000b0: 2fbf 0d3f 8747 48bd 469d c4bc 6359 c7be
000000c0: 7758 1dbf 3393 2c3f 0d20 bcbe 9c39 97be
000000d0: 4296 b03e 78ab 1bbf 0d26 953e 7ecd 26be
000000e0: b610 533e eb8e f2bd 1f7f 9b3d 3d4e 78bd
000000f0: eed6 403f 8239 c93e 6f8a b3be 987a 08bf
00000100: 7c97 bbbe 5045 eabe fd6c bcbe 539e 023f
00000110: aec9 6fbe 4cbf fb3c bdeb 99be 448d a1be
00000120: 9c54 523e c69d 1ebf 566c c3be e4eb fa3e
00000130: 77e1 e03d cf1b 02bf 839f 9b3d 0267 88be
00000140: a540 0e3f 914f aebe 2eb0 053f c923 90be
00000150: e94e 9d3e 8dca 29be 43f6 87be 20fe 82be
00000160: 3abc db3d ed35 d63e cb69 1dbf c4ac d6be
00000170: 0611 dbbe 6f9c 933d 3835 003f 7de1 1d3f
00000180: 5846 1abe 5e53 5c3c 5e7c 163f 3fcc cabe
00000190: f4c9 21bd d219 76be 2725 02bf dd52 1bbf
000001a0: 045c d73d fa53 98be f411 c1be c5ef f5be
000001b0: adc9 f03d 0343 ccbe cab1 51be dd79 13bf
000001c0: e4ef 373e 8d36 b7be ff2c 97be 1f4d 503b
000001d0: 2322 d63e 00f6 8e3e e8a5 97be 51de 99bb
000001e0: 880d f6be 7cc5 0ebf cc80 33be 04b5 06bf
000001f0: c0b3 c6be c3e2 423f 6bb4 503c b80d c4be
00000200: a749 06bf 7750 d73d 444a 2d3e 4e58 e63b
00000210: c56a fa3e d41e a0bc d81e 983e 8b35 e0bd
00000220: 2c57 c6bc 777e 27bf 6764 40be 75e3 033f
00000230: e7a2 0a3e aa3c cabe f25e 0fbe 9556 17be
00000240: 2e70 07bf 9664 623e 734e 963e ebda 02bd
00000250: 6810 803e 2ca1 033e f88d ebbe cec5 01bf
00000260: 8d28 a7be 3698 c83e 5682 e2be ebc3 1abf
00000270: cb82 c3be d2ad 25be fd1a c03e b07e 923e
00000280: 583e 07bf db70 943e 9663 023f 5cfc 08be
00000290: a497 e43e 3ecc 6d3e 2e6f 533e 82dc 89be
000002a0: 655b e33e 9c14 97be ed19 ec3d 8056 50be
000002b0: 723b ed3e a35c 5c3e 5b9a 03bf b4d0 d23e
000002c0: 15db fcbd 9d2a c93e 0cd7 0ebf 3341 12bf
000002d0: 6074 ffbe e576 2b3e 9201 04be 89cc cabe
000002e0: 2b0a cdbe bdb8 023c ba26 373e 9d3a cfbe
000002f0: 38f2 fabd c5bc adbe 42fa de3e a2b7 efbd
00000300: 8eaa f93e fb65 113f 485a c3be 0155 0bbf
00000310: 9891 87be 265f 99be b57e 7b3e 9865 e73e
00000320: 1a48 343e fcb1 023e 6fa8 f8be d394 e73d
00000330: 0c47 c9be a6b8 52be 0033 ebbe 3c8d 663e
00000340: 6743 a6ba 6c66 77be b4f6 2bbf 4626 09bf
00000350: dd21 583e b95f d1be 2337 183f 068d c5be
00000360: 7d0c 10bf e1b3 aebe 78c5 96bd 259b 7fbe
00000370: a24c c4be 29ff 8fbd 189e f9be b76a a03e
00000380: e2ea c5bd a51a 953d 8446 c8be 7a76 f13e
00000390: 4c4c d2bd 7d65 b43e 7411 f63e 4681 243e
000003a0: 75ff 68be 0ad4 a7ba 8111 d5be a147 babb
000003b0: 8b19 b23e 4895 7ebc 4859 5d3e 450a 83be
000003c0: 7db2 5e3e 0429 22be 29dd dabd fa3b 89be
000003d0: 861e 1b3f 5429 f6be 7792 a0be 758f 563e
000003e0: 2fe6 56bd 0954 00bf dc64 e63e ad40 2ebe
000003f0: 0f88 8fbe 778e ff3e fc6f b73e 4a93 033f
