data/sac/sac_s0/pyt_save/model.pt (torch, 12178 bytes, 12 tensors)

weight f4 [50, 2]
0	0x3ee9f306	0.45693225
1	0xc0a255c5	-5.07297
2	0xbe28914e	-0.1646168
3	0xc0b68ad9	-5.704449
4	0xbeedd532	-0.46451718
5	0x3d935ceb	0.07195457
6	0xbc658a40	-0.014010012
7	0x3f0f8741	0.56065756
8	0xbd8083e0	-0.06275153
9	0x3e3f9998	0.18710935
10	0xbe789972	-0.24277285
11	0x3f88c6a2	1.0685618
12	0xbf63341b	-0.8875138
13	0x3fb4991a	1.4109223
14	0xbe953d9f	-0.29148576
15	0x3cd69440	0.026193738
16	0x3fbc6bfe	1.4720457
17	0xbcc5f8fa	-0.024166573
18	0xbeaf7103	-0.3426591
19	0xc06c2994	-3.6900377
20	0x3e837fa6	0.25683326
21	0x3f1650f7	0.5871729
22	0x3efc2e27	0.4925396
23	0x40a27471	5.076714
24	0xbde96b20	-0.113973856
25	0x3d993c38	0.07482189
26	0x3f3fe05d	0.74951726
27	0xbfd2406e	-1.6425912
28	0x3f5766c5	0.8414119
29	0x402fd555	2.7473958
30	0xbe8d1f66	-0.27563018
31	0x3f1c669d	0.61094075
32	0xbea36655	-0.3191401
33	0x4096255c	4.6920605
34	0x3ddad607	0.10685354
35	0x40ad3c91	5.4136434
36	0xbd161f99	-0.036651228
37	0x4026bf49	2.6054251
38	0x3f4fa2f9	0.8110805
39	0x409d4f36	4.9159193
40	0x3fd3ca54	1.6546121
41	0xc03a1f19	-2.908148
42	0x3ed5a369	0.41726235
43	0x3ef42edb	0.47691998
44	0xbf0a5318	-0.5403304
45	0x3f8209e5	1.015927
46	0x3f88bf53	1.0683388
47	0x3dc729dd	0.09724782
48	0xbea08ff6	-0.31359833
49	0xbcd10300	-0.025514126
50	0x3ee78bb2	0.45223767
51	0x3f33f513	0.7029583
52	0x3e8fafcc	0.2806381
53	0x3dc3a2a8	0.095525086
54	0x3ef2bdf2	0.47410542
55	0xbed52b52	-0.41634613
56	0x3e06ed70	0.13176513
57	0xbf0c5865	-0.5482238
58	0xbf33552e	-0.7005185
59	0x3f1fb97c	0.623924
60	0x3ea3d00e	0.3199467
61	0x3e9198fe	0.28437036
62	0x3fa22eb9	1.2670509
63	0xc081392f	-4.0382304
64	0x3ec6bfc6	0.38818187
65	0xbdb6c840	-0.089249134
66	0x3cdd2bc0	0.0269984
67	0x3e27c5ac	0.16384
68	0x3ff723f1	1.9307843
69	0xbfa47e80	-1.2851105
70	0xbecb7753	-0.39739475
71	0x40bcd2ac	5.900717
72	0x3e7cf823	0.24704032
73	0x3f12e099	0.5737396
74	0x400bdd15	2.1853688
75	0xbfb8ac76	-1.4427631
76	0x40058eb5	2.0868351
77	0xc0197e29	-2.3983252
78	0x3f504732	0.81358635
79	0x3f199a9a	0.6000153
80	0x3f21b385	0.6316455
81	0xc05f50ca	-3.489306
82	0x3f5c0457	0.8594412
83	0xc084349a	-4.131421
84	0x40087606	2.1322036
85	0xc007a50f	-2.1194494
86	0xbd96aa09	-0.073566504
87	0xbea87982	-0.32905203
88	0x3e8b3966	0.2719223
89	0xbed66fd0	-0.4188218
90	0x3e84b862	0.25921923
91	0x3eb715fe	0.35758966
92	0x3f1a0d9f	0.60177034
93	0xc09fd554	-4.994791
94	0xbebadd9d	-0.36497203
95	0xbfd0e385	-1.6319433
96	0x3eb4c576	0.353069
97	0x3e178ce4	0.1479984
98	0xbefa0fc2	-0.48840147
99	0xbed1fd2b	-0.41013464

bias f4 [50]
0	0x3d808eea	0.06277259
1	0xbe4fd5df	-0.20296429
2	0xbe59f6fb	-0.21285622
3	0xbe363d40	-0.17796803
4	0xbf2c704d	-0.6735886
5	0xbe97be83	-0.29637536
6	0xbee4afb2	-0.44665295
7	0xbf0ba167	-0.54543155
8	0xbe108145	-0.14111812
9	0xbefb1a65	-0.49043575
10	0xbe94440b	-0.28958163
11	0xbdefc25e	-0.117069945
12	0xbedc508f	-0.4303021
13	0x3eae040c	0.33987463
14	0xbcc4c845	-0.024021277
15	0xbf18a688	-0.59629107
16	0xbe1a4772	-0.15066317
17	0xbe86c454	-0.2632166
18	0xbe3a9b81	-0.18223383
19	0xbdc5b2ab	-0.09653219
20	0xbf0867f3	-0.53283614
21	0xbc1de312	-0.009636657
22	0xbf26a771	-0.65099245
23	0x3db4c461	0.08826519
24	0xbf2da481	-0.6782914
25	0xbed6952e	-0.4191069
26	0xbe354218	-0.17700994
27	0xbeb05a97	-0.34444115
28	0xbe7d4e72	-0.24736956
29	0xbf4e8b5f	-0.80681413
30	0xbe1a05b0	-0.15041232
31	0xbde20d27	-0.11037665
32	0xbeebdb16	-0.46065587
33	0xbd14a300	-0.03628826
34	0x3e442b45	0.19157131
35	0xbef254d9	-0.4733036
36	0xbdc8655b	-0.09784957
37	0xbe5a7c7c	-0.2133655
38	0xbe586883	-0.21133618
39	0x3e8249bb	0.25446877
40	0x3e55dff6	0.20886216
41	0x3eaf7a8e	0.3427319
42	0xbe1e6233	-0.15467148
43	0xbdd30986	-0.10304551
44	0xbf229d12	-0.6352092
45	0xbeaba261	-0.33522323
46	0x3dd4bf8c	0.10388097
47	0xbed20d64	-0.4102584
48	0xbeb3f333	-0.35146484
49	0xbf1abfee	-0.6044911

weight f4 [3, 50]
0	0xbf2139d5	-0.6297887
1	0x3e6286f3	0.22121792
2	0x3d179eae	0.037016563
3	0x3d9ed5da	0.07755633
4	0x3d9c961e	0.0764582
5	0xbe6620cc	-0.22473449
6	0x3e13b524	0.14424568
7	0xbde2a392	-0.11066355
8	0x3f7e4628	0.993258
9	0x3eacf62d	0.33781567
10	0xbcdf263c	-0.027239911
11	0x3ed6692b	0.41877112
12	0xbe01f33e	-0.12690446
13	0x38afd4d6	8.384294e-05
14	0x3b1ff560	0.002440773
15	0x3aefb780	0.001828894
16	0xbc560efe	-0.013065098
17	0x3eb1130f	0.34584853
18	0x3d0a0de8	0.03370467
19	0x3de4622f	0.111515395
20	0xbf8c3b4c	-1.0955596
21	0x3d80ef67	0.062956624
22	0xbf295853	-0.661504
23	0xbe1c5840	-0.1526804
24	0xbe02b0b8	-0.12762725
25	0x3db73fac	0.08947691
26	0xbc85aff0	-0.016319245
27	0xbd814b12	-0.06313147
28	0x3de79ab6	0.11308806
29	0xbe723634	-0.2365349
30	0x3c78a170	0.015175208
31	0x3fa2bc8d	1.2713791
32	0x3dced442	0.10099079
33	0x3d21b2a4	0.039477006
34	0x3eb2bc4f	0.34909293
35	0x3e58bae0	0.21165037
36	0xbbec8ad1	-0.0072186966
37	0x3fd02f8b	1.6264509
38	0x4007d739	2.1225111
39	0x3cb83135	0.022484401
40	0x3e023818	0.1271671
41	0xbe0aad98	-0.13542783
42	0x3f4e520b	0.8059394
43	0x3c4bdbfe	0.012442587
44	0xbdcc2bb6	-0.09969275
45	0xbd9f6ff0	-0.07785022
46	0x3d33e84e	0.043922715
47	0x3e8cc85e	0.27496618
48	0xbdac984c	-0.08427486
49	0xbcf7d31e	-0.030252036
50	0xbe8785fd	-0.26469412
51	0x3e22ce28	0.15898955
52	0x3ce03b80	0.027372122
53	0xbdc6d5cf	-0.097087495
54	0xbda82d74	-0.082117945
55	0x3d501b90	0.050807536
56	0x3e062b32	0.13102415
57	0x3df44cea	0.11928733
58	0xbe6df417	-0.23237644
59	0x3f281481	0.65656286
60	0xba89fc00	-0.0010527372
61	0xbf310c9f	-0.69159883
62	0x3c915b10	0.017743617
63	0x3dd6dc85	0.104912795
64	0xbe407f03	-0.18798451
65	0x3c93d1d0	0.018044382
66	0xbc4c1985	-0.012457256
67	0xbeb302e3	-0.3496314
68	0xbbeac17e	-0.0071641793
69	0xbf332f5a	-0.6999413
70	0x3ee0b339	0.43886736
71	0x3db33ae3	0.08751466
72	0x3eb7b8fd	0.35883322
73	0x3e3c5142	0.18390372
74	0xbdfaff3f	-0.122557156
75	0x3d8f7a0e	0.07005702
76	0xbdce4c6e	-0.100731716
77	0xbd246e88	-0.040144473
78	0xbd425a12	-0.04744918
79	0x3d2f81ed	0.042848516
80	0x3acac180	0.0015469044
81	0xbecc5f43	-0.3991643
82	0x3c90a0f8	0.01765488
83	0x3e01b5cf	0.1266701
84	0xbf58aeb3	-0.8464157
85	0xbdc9be28	-0.098507226
86	0xb8328046	-4.255797e-05
87	0xbf54817c	-0.8301008
88	0xbf71e199	-0.9448486
89	0x3e89f95a	0.26948053
90	0x3dfa8ab4	0.12233487
91	0x3e8d3a74	0.2758366
92	0xbc15f6da	-0.009153092
93	0xbc80041d	-0.015626961
94	0x3d951bdc	0.072807044
95	0xbe0c0cc7	-0.13676749
96	0xbbfab170	-0.0076505467
97	0xbeec2c56	-0.46127576
98	0x3aff7a80	0.0019491464
99	0xbcad5d5f	-0.021162687
100	0x3f494fc8	0.7863736
101	0xbe962ddf	-0.29331872
102	0xbdc01ec6	-0.093808696
103	0xbd29545e	-0.041340224
104	0xbdabf3c2	-0.083961025
105	0xbdb01a35	-0.085987486
106	0xbdd3f521	-0.10349489
107	0x3d82bcd8	0.06383675
108	0xbebccc29	-0.36874512
109	0xbf7fa5f1	-0.9986258
110	0xbda6db58	-0.08147305
111	0xbab481d8	-0.0013771607
112	0x3d996184	0.07489303
113	0x3d2a75e7	0.041616347
114	0x3e3ffbbc	0.18748373
115	0xbd41733c	-0.047229037
116	0xbdc69e43	-0.09698155
117	0xbe3b1e21	-0.18273212
118	0x3d6622c3	0.056185495
119	0x3ee281fa	0.4423979
120	0x3f21265b	0.6294915
121	0x3e532638	0.20620048
122	0x3ef9edca	0.4881423
123	0x3edb71ea	0.42860347
124	0xbda2892c	-0.0793632
125	0xbe011d2e	-0.12608787
126	0x3dfdf876	0.12400906
127	0xbdbc16ef	-0.09184062
128	0xbc83cba0	-0.016088307
129	0x3dba1fe2	0.090881124
130	0x3b93a260	0.0045054406
131	0xbfb43d8a	-1.408128
132	0xbdea1d70	-0.11431396
133	0x3de6dc16	0.11272447
134	0x3f156d06	0.5836948
135	0xbd22e14f	-0.039765652
136	0xbc4d728a	-0.012539515
137	0xbfbabe19	-1.4589263
138	0xbff51478	-1.9146872
139	0x3d4e2d0a	0.05033592
140	0xbd92863b	-0.07154509
141	0x3e83c281	0.25734332
142	0xbfc6c00b	-1.5527357
143	0x3c1ecdc9	0.009692618
144	0xbd0246fa	-0.03180597
145	0xbdb28982	-0.08717634
146	0x3eb1eb8e	0.34750026
147	0x3ccb688d	0.024830127
148	0x3d6d4db8	0.057935447
149	0xbc1e80fd	-0.009674308

bias f4 [3]
0	0x3c74c652	0.014939861
1	0xbd23a0c8	-0.039948255
2	0xbd231bbf	-0.039821383

weight f4 [50, 2]
0	0x3efdbfca	0.49560386
1	0xbec52b1e	-0.38509458
2	0xbdf9e9e2	-0.12202813
3	0xbe204c4f	-0.1565411
4	0x3e9a33ee	0.30117744
5	0x3e8f4e5e	0.27989477
6	0x3e6f866a	0.23391119
7	0xc02e2d8b	-2.7215297
8	0x3fb92d7e	1.4467008
9	0xc0197e71	-2.3983424
10	0xbe67cad7	-0.22635971
11	0x3e5e1886	0.21689042
12	0x3f0510b4	0.5197861
13	0xbfa0dffb	-1.2568353
14	0x3be48100	0.006973386
15	0x3e95b3e0	0.29238796
16	0x3d6301b0	0.05542153
17	0x3d71eee0	0.0590657
18	0x3eae2507	0.34012625
19	0xc035e240	-2.8419342
20	0x3f005615	0.5013135
21	0x403ed573	2.981778
22	0x3f231e77	0.6371836
23	0x3ed4c9de	0.41560262
24	0x3dc20ea0	0.09475446
25	0x3ea913c2	0.33022887
26	0xbe53ef73	-0.20696811
27	0x4057fdec	3.3748732
28	0xbeff4db8	-0.49863982
29	0x403532fe	2.8312373
30	0x3e97642d	0.29568616
31	0xc0558ba8	-3.336649
32	0x3f469665	0.77573234
33	0x3ecdb6e2	0.4017859
34	0x3fd1ae82	1.638138
35	0xbe08bb0b	-0.13352601
36	0x3f0c3ed3	0.5478336
37	0xbe26005c	-0.16211075
38	0x3cd2a84d	0.025715018
39	0x40350993	2.8287094
40	0x3f02f048	0.5114789
41	0xc03ce227	-2.9513032
42	0x3fdfbaa8	1.7478838
43	0xbfefee6c	-1.8744636
44	0x3ec55c32	0.38546902
45	0xbee2ead2	-0.4431978
46	0x3e4fbcd8	0.20286882
47	0xbe7dd596	-0.24788508
48	0x3f0d70cf	0.5525026
49	0xbe024a78	-0.1272372
50	0x3e8cf238	0.27528548
51	0x3e009ca8	0.1255976
52	0x3f995971	1.198042
53	0xbd2172c2	-0.039416082
54	0x3eb0850a	0.344765
55	0xbefcdf9d	-0.49389353
56	0x3f9321ea	1.1494725
57	0xc0312836	-2.7680793
58	0xbdf27a7e	-0.1183977
59	0xc05310c6	-3.2978988
60	0x3fc24e5d	1.5180165
61	0xbfa1dabe	-1.264488
62	0x3f29d5cf	0.6634187
63	0x3f1104b7	0.5664782
64	0xbedb1407	-0.42788717
65	0x3ef910bd	0.48645583
66	0xbc594c26	-0.013262784
67	0xbd162a44	-0.0366614
68	0x3efb65fe	0.4910125
69	0xbf08da1e	-0.5345782
70	0x3ca3921f	0.019967137
71	0xbe69fea9	-0.22851051
72	0xbecd8bbd	-0.40145674
73	0x3f14e263	0.5815794
74	0x3f14361f	0.5789508
75	0x3f019499	0.5061737
76	0x3f0bc51d	0.54597646
77	0x3f20f5bf	0.6287498
78	0xbe55dc40	-0.208848
79	0xc0120b39	-2.281935
80	0x3f80ec94	1.0072198
81	0x3eaa6624	0.33281052
82	0x3f34f5f3	0.7068779
83	0x3ebbc6aa	0.36675006
84	0x3f452065	0.77002555
85	0xbf09f4a9	-0.53888947
86	0x3eadb752	0.33928925
87	0x3da66708	0.081251204
88	0x3d1487e1	0.036262397
89	0xbe8601b3	-0.2617317
90	0xbe80dd0a	-0.2516864
91	0x3f3453f4	0.704406
92	0x3ef30c2a	0.47470218
93	0x3f00b139	0.5027042
94	0x3f8e89d5	1.1135813
95	0xc03289bf	-2.7896574
96	0x3fc7a6ab	1.5597738
97	0xbf50a7a5	-0.81505805
98	0x3f1f2e8b	0.62180394
99	0xbf4d824b	-0.80276936

bias f4 [50]
0	0x3e67f17b	0.22650711
1	0xbe19066b	-0.14943855
2	0xbf096b84	-0.5367968
3	0x3d28786a	0.04113046
4	0xbe00d11e	-0.12579772
5	0xbe954932	-0.29157406
6	0x3e3aa49a	0.18226853
7	0xbecdb4d6	-0.4017703
8	0xbde2f250	-0.11081374
9	0x3c380ba4	0.011233244
10	0xbd8b08da	-0.06788798
11	0xbf000529	-0.50007874
12	0xbe7202b0	-0.23633838
13	0xbe868b00	-0.26277924
14	0xbe6bf76d	-0.23043604
15	0x3d28afe1	0.041183356
16	0x3dc75b4c	0.0973421
17	0xbf072eed	-0.5280598
18	0xbedf8983	-0.436596
19	0xbe127af7	-0.1430472
20	0x3e369f35	0.1783417
21	0x3e2c060d	0.16799183
22	0xbf2570c7	-0.6462521
23	0xbe019174	-0.12653142
24	0xbf068606	-0.52548254
25	0xbe9a7a07	-0.30171224
26	0xbe3f191a	-0.18661919
27	0xbf008c1c	-0.5021379
28	0xbdddca90	-0.10829651
29	0xbdf9ebd3	-0.12203183
30	0xbe06dcf5	-0.13170226
31	0xbef14b58	-0.47127795
32	0xbf026cd3	-0.509473
33	0xbd018d53	-0.031628918
34	0xbf09fe8a	-0.5390402
35	0xbd48a128	-0.048981816
36	0xbf24578a	-0.64196074
37	0xbf2e033f	-0.67973703
38	0xbf2fe3ad	-0.6870678
39	0xbe96c607	-0.29447958
40	0x3e00bace	0.1257126
41	0xbf2b54bc	-0.6692617
42	0x3e403964	0.18771893
43	0xbe90d2e1	-0.28285888
44	0xbd362df0	-0.044477403
45	0xbe9c2010	-0.30493212
46	0xbf233a85	-0.6376117
47	0xbdca5551	-0.09879554
48	0xbe06006f	-0.13086103
49	0x3d37e450	0.04489547

weight f4 [3, 50]
0	0xbc72551b	-0.014790799
1	0x3c284e9b	0.010272647
2	0x3df1b8a6	0.11802797
3	0xbeac672e	-0.3367247
4	0x3fb699e4	1.4265714
5	0xbd7d88bd	-0.061897982
6	0xbd8a6b83	-0.067587875
7	0xbe0e30ea	-0.13885847
8	0xbd619e40	-0.05508256
9	0x3cc33902	0.023830894
10	0x3ef8d98a	0.4860347
11	0x3d38a5e0	0.045080066
12	0x3d9b79d2	0.07591595
13	0x3ef01946	0.46894282
14	0x3d848376	0.06470387
15	0xbf8a0e02	-1.0785525
16	0xbdb328a0	-0.08747983
17	0xbead2df2	-0.33824116
18	0x3e0ed871	0.13949753
19	0x3f46e14c	0.77687526
20	0x3d896218	0.06708163
21	0x3e2fc737	0.17165838
22	0xbe0e12b6	-0.13874325
23	0xbdf75fca	-0.12078817
24	0x3d8724e4	0.06598833
25	0xbda40d26	-0.0801032
26	0x3f8f224a	1.1182339
27	0xbdcc75b6	-0.09983389
28	0x3fa2268f	1.2668017
29	0x3eba7ddb	0.36424145
30	0x3fc05aa7	1.5027665
31	0xbc6c1880	-0.014410138
32	0xbea517c4	-0.32244694
33	0x3cae88f8	0.021305546
34	0x3da043e0	0.07825446
35	0x3c870ffc	0.016487114
36	0xbd331854	-0.043724373
37	0xbcfbe658	-0.030749485
38	0x3c99f7f0	0.018794984
39	0x3f386ccc	0.7204101
40	0xbe20cf7e	-0.15704152
41	0x3df314b2	0.11869182
42	0x3d9f11d2	0.07767071
43	0xbdf2b1ea	-0.11850341
44	0x3d335340	0.043780565
45	0xbf1097ba	-0.56481516
46	0x3e04700d	0.12933369
47	0x3f791df0	0.97311306
48	0x3f586a36	0.84537065
49	0xbd75cdf5	-0.06001087
50	0x3df6294c	0.120195955
51	0x3c93b5d4	0.018031038
52	0xbd9c18c1	-0.07621909
53	0x3e084792	0.13308552
54	0x3d90d56e	0.070719585
55	0xbcbb365a	-0.022853065
56	0x3df18527	0.11792975
57	0xbd26a952	-0.04068882
58	0x3db31150	0.087435365
59	0xbd2394e7	-0.039936926
60	0xc0129c79	-2.2908003
61	0x3d11d420	0.03560269
62	0x3d4d75e4	0.050161257
63	0xbe276fd5	-0.16351254
64	0x3d82f571	0.063944705
65	0x3dbfd803	0.09367373
66	0x3e21371a	0.15743676
67	0x3f5f2a2b	0.8717372
68	0xbd0bb5de	-0.03410899
69	0xbed56fe6	-0.41686934
70	0xbc8097dc	-0.015697412
71	0xbf3dfc8d	-0.74213487
72	0xbd930391	-0.071784146
73	0x3e051645	0.12996776
74	0xbd1bdec4	-0.038054243
75	0xb9ca7200	-0.0003861338
76	0xbed55a36	-0.41670388
77	0x3e10915f	0.14117955
78	0xbd89a30f	-0.06720554
79	0x3d8f069b	0.06983682
80	0xbda8b352	-0.08237328
81	0xbddb89ca	-0.107196406
82	0xbdd0f148	-0.10202271
83	0x3cf36089	0.029709117
84	0xbdbd93a2	-0.09256674
85	0x3cbcfa62	0.02306861
86	0x3cdae180	0.026718855
87	0xbd975459	-0.07389135
88	0x3d005ab4	0.0313365
89	0x3f2eb018	0.6823745
90	0x3e2b47b1	0.16726567
91	0x3c9f2a10	0.019429237
92	0x3e06594d	0.13120003
93	0xbdc3d040	-0.09561205
94	0x3d199510	0.037495673
95	0x3e4c1995	0.19931634
96	0x3e0e1bbd	0.13877769
97	0x3df332c8	0.1187492
98	0xbe4763f2	-0.1947172
99	0x3e021f30	0.1270721
100	0x3cf44227	0.0298167
101	0x3d4c8a13	0.049936365
102	0xbc47f9b0	-0.012205526
103	0x3e8f30a6	0.27966803
104	0xbfa5842c	-1.2930961
105	0x3d860db2	0.06545581
106	0x3d1dad1a	0.03849516
107	0xbe0cfe95	-0.1376899
108	0xbdaafc90	-0.08348954
109	0x3bd1e6ba	0.0064056786
110	0x3fe311e0	1.773983
111	0xbdbb6e12	-0.091518536
112	0x3e088ca3	0.13334899
113	0xbe95812b	-0.2920011
114	0xbe31a4a2	-0.17347959
115	0x3f98f121	1.1948587
116	0x3c9a04c4	0.0188011
117	0x3d4f3368	0.050586134
118	0x3da78910	0.081804395
119	0xbe4df6ff	-0.20113753
120	0xbe5c01aa	-0.2148501
121	0x3f4de651	0.8042956
122	0x3defb59e	0.117045626
123	0xbd42696a	-0.047463812
124	0xbe064c2a	-0.13114992
125	0x3d6d74b8	0.05797264
126	0xbf0b6708	-0.5445409
127	0xbd24e7fa	-0.040260293
128	0xbf9f34b3	-1.2437958
129	0xbf41b888	-0.756722
130	0xbf659239	-0.89676243
131	0xbc2f7240	-0.010708392
132	0x3f139cf1	0.5766135
133	0x3cff8e26	0.031195711
134	0x3d5bfad4	0.053706005
135	0x3d1d57a1	0.038413648
136	0x3de0dd42	0.109797016
137	0xbcad6984	-0.021168478
138	0xbdff6316	-0.12470071
139	0xbfc3ac3a	-1.5286934
140	0x3d3bbd46	0.045834802
141	0x3d80086a	0.06251605
142	0x3cda0bb1	0.026616903
143	0xbdfa9844	-0.122360736
144	0x3c199c5a	0.009375656
145	0x3f20e478	0.62848616
146	0x3e02bf87	0.12768374
147	0xbfbfe35b	-1.4991258
148	0xbf2ee4e0	-0.68317986
149	0x3de8b147	0.11361938

bias f4 [3]
0	0x3d1563e5	0.03647222
1	0x3ae3047c	0.0017320062
2	0x3b627c58	0.0034558978

weight f4 [50, 2]
0	0x3ee8f4b3	0.4549919
1	0xc0076c58	-2.1159878
2	0x3e3c3cb7	0.18382536
3	0xbdeb92ec	-0.115026325
4	0xbd8b3228	-0.06796676
5	0xbf0d029a	-0.55082095
6	0x3f425396	0.7590879
7	0xbf9391b5	-1.1528841
8	0x3e806ba6	0.2508213
9	0x3f1d7299	0.6150299
10	0x3eb69502	0.3566056
11	0x3dcd0790	0.10011208
12	0x3f1a0585	0.6016467
13	0x3dc2ab80	0.09505367
14	0xbea77fe5	-0.32714763
15	0x3f2b3e83	0.6689226
16	0x3fb55352	1.4166052
17	0x3c5c95ad	0.01346342
18	0xbe1704ac	-0.14747876
19	0xbed081e6	-0.40724105
20	0x3f64e05a	0.89404833
21	0xc02b3852	-2.6753125
22	0xbe6a2012	-0.22863796
23	0xbee276ba	-0.44231206
24	0x3f325481	0.6966019
25	0x3cd0cdd5	0.025488773
26	0x3f52d10e	0.8235024
27	0xbf77e7df	-0.9683818
28	0x3eea875c	0.45806396
29	0xbfdcb35e	-1.7242239
30	0xbe9004e1	-0.28128722
31	0xbf293347	-0.6609387
32	0xbf03054b	-0.5117995
33	0x3f023988	0.50869036
34	0xbee73cbb	-0.4516352
35	0x3f86e4d6	1.0538585
36	0x3e671e8c	0.22570246
37	0x3d4d11e0	0.050065875
38	0xbe18b83d	-0.14914031
39	0x4006606e	2.0996356
40	0x3f358a32	0.70913994
41	0x3fb92d51	1.4466954
42	0xbf1a3118	-0.6023116
43	0x3f802e27	1.0014085
44	0x3f24f908	0.6444249
45	0xc060c00b	-3.5117214
46	0x3f181063	0.59400004
47	0xbef923a6	-0.4866001
48	0xbebf9281	-0.3741646
49	0xbf886ee2	-1.0658839
50	0x3fa6f042	1.3042071
51	0x3b660d1a	0.0035103024
52	0xbe501533	-0.20320587
53	0xbf19daec	-0.60099673
54	0xbc926ad5	-0.017873207
55	0x402dd4f5	2.7161229
56	0x3f051aa9	0.51993805
57	0xbf0c4995	-0.5479978
58	0x3f8a15d0	1.0787907
59	0x3eeeac8b	0.46616015
60	0xbdf9cd21	-0.12197328
61	0x3f79d8d3	0.9759647
62	0xbe5efc0c	-0.21775836
63	0x3f11b6b5	0.56919414
64	0xbe26e8cb	-0.16299741
65	0x40293bbc	2.644271
66	0xbdfe5cf8	-0.12420076
67	0x3e6aa9a0	0.2291627
68	0x3e8e09a6	0.27741736
69	0x3f0afd5d	0.5429285
70	0xbd12cd4e	-0.035840325
71	0x3d28aefe	0.04118251
72	0x3f28fc44	0.66009927
73	0xc03b918a	-2.930758
74	0x3f1eb009	0.6198736
75	0xbef10cbc	-0.47080028
76	0x3eba8ba4	0.36434662
77	0xc0063459	-2.096945
78	0x3f57b1c2	0.8425561
79	0x3dcccbbf	0.09999799
80	0x3fb5f719	1.4216033
81	0xc02e4aec	-2.7233229
82	0x3eb3632a	0.35036594
83	0x3e589834	0.21151811
84	0x3e813f09	0.25243405
85	0xbed5d8d0	-0.41766977
86	0x3ee901aa	0.45509082
87	0x3f2b740f	0.66973966
88	0x3d7b5110	0.061356604
89	0xbf2914b1	-0.660472
90	0x3f85d049	1.0454189
91	0xc010f0e6	-2.2647033
92	0x3f9570ff	1.1675109
93	0x3f4f63db	0.8101174
94	0x3f9b4eb6	1.2133396
95	0xbfa3b180	-1.2788544
96	0xbe967442	-0.29385573
97	0x3f68e2d3	0.90971106
98	0xbe07ef98	-0.13274992
99	0xbd6e0e8d	-0.058119345

bias f4 [50]
0	0x3e3702c4	0.17872149
1	0xbd75c470	-0.06000179
2	0xbeacbc6a	-0.337375
3	0x3e6f2ae2	0.23356202
4	0xbdb7f6f0	-0.089826465
5	0xbeabf135	-0.33582464
6	0xbf1da1af	-0.61574835
7	0xbf2616ac	-0.64878345
8	0x3de614fb	0.112344705
9	0xbe6a59fc	-0.22885889
10	0xbe965536	-0.29361886
11	0xbe8ff000	-0.28112793
12	0x3e7096f6	0.23495087
13	0x3d94877f	0.07252406
14	0x3e349441	0.1763468
15	0xbf061d3a	-0.52388346
16	0xbe86cb2d	-0.26326886
17	0xbf0b5803	-0.5443117
18	0xbeced9f7	-0.4040067
19	0xbe5f51cd	-0.21808548
20	0xbdc4802f	-0.095947616
21	0xbf39b0a0	-0.72535133
22	0x3db7261f	0.08942818
23	0xbebbb47b	-0.36661133
24	0xbec744e0	-0.38919735
25	0xbe27b32a	-0.1637694
26	0xbe810538	-0.25199294
27	0xbe20253f	-0.15639208
28	0xbefd13aa	-0.49429065
29	0xbe1c02af	-0.15235399
30	0xbe23c367	-0.15992509
31	0xbf046554	-0.51717114
32	0xbe8157c7	-0.2526228
33	0xbf00b538	-0.5027652
34	0xbf0fa3e2	-0.5610944
35	0xbd3967e4	-0.045265093
36	0x3e796d19	0.24358024
37	0xbe4ce6fc	-0.20009989
38	0xbd716b7e	-0.058940403
39	0x3ddb748c	0.10715589
40	0xbe002897	-0.12515484
41	0xbebde950	-0.37092066
42	0xbddfb3ab	-0.10922941
43	0xbe63db2e	-0.22251579
44	0xbf118fd2	-0.5686008
45	0xbeac2f8a	-0.3363002
46	0xbe2a3364	-0.16621166
47	0xbde5e3dd	-0.11225102
48	0xbeb6483f	-0.35601994
49	0xbe2561e1	-0.16150619

weight f4 [3, 50]
0	0xbf04f205	-0.5193179
1	0x3d9857ab	0.07438596
2	0xbd71092a	-0.05884663
3	0x3cba17eb	0.022716483
4	0x3cb267b8	0.021777973
5	0x3dad99be	0.084765896
6	0xbe02907d	-0.1275043
7	0x3e02e893	0.12784033
8	0x3f181ade	0.59415996
9	0xbc9a0cc1	-0.01880491
10	0xbf14aef5	-0.58079463
11	0x3e326154	0.1741994
12	0xbd8150bf	-0.06314229
13	0xbe51320d	-0.20429249
14	0xbaa6b9b3	-0.0012720138
15	0xbdfdbdc9	-0.12389714
16	0x3e2b07e9	0.16702236
17	0xbf351f8e	-0.70751274
18	0x3db3a176	0.087710306
19	0x3e0b3fe3	0.1359859
20	0x3f4d8c87	0.8029255
21	0xbf518d57	-0.8185629
22	0x3ea9a023	0.33129987
23	0xbe0afa60	-0.13572073
24	0x3e91fced	0.2851328
25	0x3f63c538	0.88972807
26	0xbd9d29ed	-0.07674012
27	0x3f39c627	0.7256798
28	0xbda062b5	-0.07831327
29	0x3f4234ed	0.7586201
30	0xbb6c4691	-0.0036052803
31	0xbe0d12a2	-0.13776639
32	0x3e79a5a5	0.24379595
33	0x3ccce530	0.025011629
34	0xb8fb1800	-0.00011973083
35	0x3d914170	0.07092559
36	0x3df4594c	0.119310945
37	0x3d1a0438	0.03760168
38	0x3f742884	0.9537432
39	0xbd5ba40b	-0.05362324
40	0x3fd1cfac	1.6391501
41	0xbdc8c712	-0.09803595
42	0x3c02c2bb	0.007980998
43	0xbccce728	-0.025012568
44	0x3d80d890	0.06291306
45	0xbeec5d7f	-0.46165082
46	0x3f6922d1	0.9106875
47	0x3f8c308c	1.0952315
48	0xbe911f5c	-0.28344238
49	0x3ce368b7	0.027759893
50	0x3e11ae9f	0.14226769
51	0xbd403dea	-0.046934046
52	0x3cce5dd8	0.025191233
53	0xbd70130c	-0.058611915
54	0xbd87cb41	-0.066305645
55	0xbd4821cc	-0.048860356
56	0x3d1ce538	0.038304538
57	0xbdc96638	-0.0983395
58	0xbf23b6e9	-0.63950974
59	0x3c62518e	0.013813389
60	0x3ec55e1a	0.38548356
61	0x3d300fed	0.042983938
62	0x3e00ef51	0.12591292
63	0x3dca443c	0.09876296
64	0x3dc7dbaa	0.097586945
65	0xbd310fe2	-0.043228038
66	0x3e0fe7a4	0.14053208
67	0x3e0c3fd8	0.1369623
68	0xbca93aa0	-0.020657837
69	0xbc11326c	-0.008862119
70	0xbf61675c	-0.8804834
71	0x3daf758f	0.085673444
72	0xbef5f9e0	-0.48042202
73	0x3bae9d60	0.005328819
74	0xbe569e43	-0.2095881
75	0xbef5b25f	-0.4798765
76	0x3de4da36	0.11174433
77	0xbe8109f8	-0.25202918
78	0xbdf28d72	-0.11843385
79	0xbf05e464	-0.5230162
80	0xbd8e67ad	-0.06953368
81	0xbd67fc26	-0.056636952
82	0xbe8b086c	-0.27154863
83	0x3d177d44	0.036984697
84	0xbcd17b0c	-0.025571369
85	0x3dc2afd0	0.0950619
86	0x3dc11279	0.094273515
87	0x3d5acef8	0.053420037
88	0xbf2dbf7b	-0.678703
89	0x3da0cf36	0.07852022
90	0xbddfe904	-0.10933116
91	0x3dd5ba72	0.10435952
92	0x3d1bf21c	0.03807269
93	0x3ce2b700	0.027675152
94	0x3ba86200	0.0051386356
95	0x3f09932d	0.537402
96	0xbf12629a	-0.57181704
97	0xbe92347d	-0.2855567
98	0x3e7fd6af	0.24984239
99	0xbc4b889a	-0.012422705
100	0x3f1701ae	0.5898694
101	0xbd65f66a	-0.056143202
102	0x3dbf2a8a	0.093342856
103	0xbdeb4804	-0.11488345
104	0x3daf9cd8	0.085748374
105	0x3e0f462f	0.13991617
106	0x3cea6a78	0.028615221
107	0xbc1a6090	-0.009422436
108	0x3ec6f82d	0.38861218
109	0xbd21a946	-0.039468072
110	0x3ea3bdbf	0.31980702
111	0xbb967010	-0.0045909956
112	0xbe017313	-0.12641554
113	0x3e735f65	0.23766859
114	0x3e330d04	0.17485434
115	0xbcdad0f0	-0.026710957
116	0xbe72d4b6	-0.23713955
117	0x3f304898	0.6886077
118	0xbb894560	-0.0041891783
119	0xbe419112	-0.18902996
120	0x3e023175	0.12714179
121	0x3f6207b3	0.88293
122	0x3e7d14e9	0.24715008
123	0xbc107a70	-0.008818254
124	0xbdc869f9	-0.09785838
125	0xbf12f315	-0.57402164
126	0xbd991d58	-0.074763
127	0xbea72aa6	-0.32649726
128	0x3da8df5e	0.08245729
129	0xbe62df13	-0.22155409
130	0x3e773289	0.24140371
131	0xbde61b10	-0.112356305
132	0x3d3a3a38	0.045465678
133	0x3e06c829	0.13162293
134	0xbda1a392	-0.07892527
135	0x3dd4991e	0.10380767
136	0x3c889592	0.016672883
137	0x3dcbc49a	0.09949608
138	0xbed1eba8	-0.41000104
139	0x3c8a53bf	0.016885636
140	0xbfd0dca6	-1.6317337
141	0xbc131f40	-0.008979619
142	0x3c7f2a25	0.015574013
143	0x3d2db7a8	0.042411476
144	0x3df25d92	0.11834253
145	0x3ec4b270	0.38417387
146	0xbe433d78	-0.19066417
147	0xbf7f4b4a	-0.99724257
148	0x3e671b78	0.22569072
149	0xbc41d7d0	-0.011831239

bias f4 [3]
0	0xbcc94375	-0.024568299
1	0xbd7339a0	-0.059381127
2	0xbd7f8061	-0.06237829
