models/2024-04-16T12-06-16-027871_SAC_MinAtar_SpaceInvaders/actor_local.pt (torch, 90160 bytes, 8 tensors)

weight f4 [32, 24, 3, 3]
0	0x3d60a178	0.05484149
1	0xbc11a1c8	-0.008888669
2	0x3d17b30c	0.037035987
3	0xbcc9077a	-0.024539698
4	0xbd7135da	-0.058889247
5	0xbd6acf9f	-0.05732691
6	0xbbe4b212	-0.0069792354
7	0x3d0f9150	0.03505069
8	0x3d708780	0.058722973
9	0x3d5309a3	0.051522862
10	0xbbfb543b	-0.007669953
11	0xbd817ea5	-0.06322984
12	0xbbd5fc9d	-0.006530358
13	0x3d0af4f9	0.03392503
14	0xbd562c3d	-0.052288283
15	0xbd19d795	-0.03755911
16	0xbd013100	-0.03154087
17	0xbcc6ffc5	-0.024291882
18	0x3ca661f6	0.020310383
19	0x3d158565	0.036504168
20	0x3ccef196	0.025261682
21	0xbc135a2f	-0.008993669
22	0x3d62fa1c	0.055414304
23	0x3d2b4c23	0.041820657
24	0x3d877c42	0.06615497
25	0xbc610fe2	-0.013736697
26	0x3cbe162b	0.02320393
27	0x3b6000d6	0.0034180186
28	0xbce217d7	-0.027599258
29	0xbd2e2f7e	-0.04252576
30	0x3d6a418e	0.057191424
31	0xbbb096cf	-0.0053890715
32	0xbc3929f6	-0.011301508
33	0x3d690dee	0.05689805
34	0x3d7b3f27	0.061339524
35	0xbd30d04d	-0.0431674
36	0x3d737f32	0.059447475
37	0x3d7f3d99	0.062314603
38	0x3c649bea	0.013953188
39	0xbd11d379	-0.035602067
40	0xbcefe259	-0.029282736
41	0xbcc84d0f	-0.024450807
42	0x3bfe71a5	0.0077650123
43	0xbcf0b5c5	-0.02938355
44	0x3d8b1d08	0.06792647
45	0x3d39a5af	0.045324024
46	0x3bcca9ac	0.0062458124
47	0x3c3d1e75	0.011542906
48	0xbd11764b	-0.035513204
49	0xbc4a6a75	-0.012354483
50	0x3c689d14	0.014197607
51	0x3d70c3bc	0.058780417
52	0x3cc7cbc0	0.024389148
53	0x3d5ab4e1	0.053395156
54	0x3942f000	0.00018590689
55	0xbc854dec	-0.016272508
56	0x3d0f5282	0.034990795
57	0x3c8d6d08	0.017263904
58	0xbb4a0520	-0.0030825809
59	0x3bcf3830	0.0063238367
60	0x3a7b3d09	0.0009583985
61	0xbc1ee1d6	-0.009697398
62	0x3d41d5bf	0.047322985
63	0xbc57099c	-0.01312485
64	0xbd16c24a	-0.036806382
65	0xbd5a7a89	-0.053339515
66	0x3d80a588	0.062815726
67	0x3d884e9e	0.0665562
68	0x3b256842	0.0025239144
69	0xbd1f88be	-0.038948767
70	0x3bd96df3	0.0066354214
71	0x3d7ffdfa	0.06249807
72	0xba3f441c	-0.0007296221
73	0xb9b1c634	-0.00033907744
74	0x3d2b61db	0.04184137
75	0xbc9c0e8a	-0.019049902
76	0xbd83d0b9	-0.06436295
77	0x3ae1461e	0.0017187034
78	0x3cfdad85	0.03096653
79	0xbd147ebe	-0.036253683
80	0x3ccf5fd5	0.025314251
81	0xbd08072b	-0.03320996
82	0x3cf55b8d	0.029950881
83	0x3d5c9e7b	0.053862076
84	0xbc1785e5	-0.009248232
85	0xbb8b214d	-0.004245913
86	0x3d2d3df0	0.042295396
87	0x3b8b2978	0.004246887
88	0xbd19c2ca	-0.03753928
89	0x3d72c738	0.05927202
90	0x3d2ec4e5	0.042668242
91	0x3cc95193	0.02457503
92	0x3d164d31	0.03669471
93	0xbcee863f	-0.029116748
94	0x3cde3b6f	0.02712795
95	0xbd308f56	-0.043105446
96	0xbba76980	-0.005109012
97	0xbd3bd7ee	-0.045860223
98	0x3d2ff0c7	0.042954233
99	0x3d54ce04	0.051954284
100	0xbcb635f8	-0.022242531
101	0x3b5c7737	0.0033640394
102	0x3d85e2c5	0.065373935
103	0x3d78b39a	0.060718156
104	0x3c097e4f	0.008391931
105	0x3d6814b4	0.05666037
106	0xbcec63ea	-0.028856236
107	0x3d464127	0.048401978
108	0x39cea600	0.00039415061
109	0x3d89b998	0.06724852
110	0x3d87a682	0.06623556
111	0x3c239510	0.00998427
112	0x3b6e0e80	0.003632456
113	0x3d0726cc	0.032995984
114	0xbca45f28	-0.020064905
115	0x3d36815d	0.044556964
116	0xbb983167	-0.004644561
117	0x3cf3db10	0.029767543
118	0xbb8608aa	-0.0040903883
119	0xbd32eaec	-0.04368107
120	0x3d262426	0.040561818
121	0xbcfb4355	-0.030671755
122	0x3bd739a9	0.006568153
123	0x3bad170c	0.0052822884
124	0x3cf68099	0.030090617
125	0xbc844e6a	-0.016150672
126	0xbd31e0db	-0.04342733
127	0xbd17c246	-0.037050508
128	0xbd513990	-0.051080287
129	0x3cb26e5b	0.021781137
130	0x3cb22b0e	0.021749046
131	0x3d6614ab	0.056172054
132	0xbc2b16a9	-0.010442414
133	0x3d269638	0.040670604
134	0x3d30278a	0.043006457
135	0x3bca2202	0.006168605
136	0x3c5e7e14	0.013579864
137	0x3d6049ef	0.05475801
138	0x3d4b7ad7	0.049677696
139	0xbd339bb2	-0.043849654
140	0x3c2c772d	0.010526461
141	0x3d41a9e9	0.04728118
142	0xbd630974	-0.055428937
143	0xbd26e08d	-0.040741492
144	0xbd5cf192	-0.053941317
145	0xbd3a95be	-0.04555296
146	0xbc93a7b5	-0.018024305
147	0x3cf1f8b3	0.029537534
148	0x3cf82744	0.03029216
149	0xbd82be59	-0.06383962
150	0xbcb76f5a	-0.022391964
151	0x3d4cf70d	0.050040293
152	0xbd221bec	-0.03957741
153	0xbd6c7ecc	-0.05773811
154	0xbc8a0dfc	-0.016852371
155	0xbc90c8a0	-0.01767379
156	0x3c35630a	0.011070976
157	0xbcf0a4d5	-0.029375473
158	0x3c905de1	0.01762289
159	0x3d4d91ee	0.050187998
160	0xbd2cba0c	-0.042169616
161	0xbcaf02ec	-0.021363698
162	0xbd32f9b0	-0.04369515
163	0xbd069787	-0.03285935
164	0xbd5625d0	-0.052282155
165	0x3d639a4e	0.05556708
166	0xbc05c684	-0.008165006
167	0xbd51e866	-0.051247023
168	0xbd673dce	-0.056455426
169	0xbbf125ee	-0.007359258
170	0x3d70a7fc	0.058753952
171	0xbcccb56a	-0.024988849
172	0xbd686dab	-0.056745213
173	0x3bf7a43c	0.00755742
174	0xbd39d0a6	-0.045365
175	0xbcb56ea4	-0.022147484
176	0x3b535adb	0.00322502
177	0xbd345f0a	-0.04403595
178	0xbd3be653	-0.04587395
179	0xbbccb14c	-0.0062467214
180	0xbd661acb	-0.056177896
181	0xbc4cbdf8	-0.012496464
182	0x3cfc9010	0.030830413
183	0xbd774466	-0.060367964
184	0x3baa4042	0.0051956484
185	0xbd68c806	-0.056831382
186	0xbd4fd217	-0.050737467
187	0xbca31ac3	-0.019910222
188	0x3cf32e6e	0.029685225
189	0x3c1c18ec	0.009527426
190	0xbd80f54f	-0.06296789
191	0xbd79f843	-0.061027776
192	0xbd0dab59	-0.034587238
193	0xbd7f42e1	-0.06231964
194	0x3cc7e80d	0.024402643
195	0x3d74e532	0.05978889
196	0x3d571bc8	0.05251673
197	0xbc342c9f	-0.010996967
198	0xbd48f8c1	-0.049065355
199	0xbcc40c54	-0.02393166
200	0xbd196750	-0.037452042
201	0xbd10b3c5	-0.03532769
202	0x3d80d9e6	0.06291561
203	0xbd23f97a	-0.04003284
204	0xbd1385ee	-0.036016397
205	0xbcf3f033	-0.029777622
206	0x3d0436f1	0.03227896
207	0xbbf3f148	-0.0074445345
208	0xbd0ccd7e	-0.03437566
209	0xbc8e791f	-0.01739174
210	0x3c57d5f6	0.013173571
211	0xbd7ee2ce	-0.062228017
212	0xbd8678b1	-0.06565989
213	0x3cc9accf	0.024618534
214	0xbd17b040	-0.03703332
215	0xbd85f6f7	-0.065412454
216	0x3d0eee9c	0.034895524
217	0x3cae7ae8	0.02129884
218	0x3d57baac	0.05266826
219	0xb7fa3000	-2.9824674e-05
220	0x3ceefbf8	0.029172882
221	0xbd268b76	-0.040660344
222	0x3d408dec	0.047010347
223	0x3c37711c	0.011196401
224	0x3d4f2de3	0.05058087
225	0xbd9014c0	-0.07035208
226	0x3d1acac2	0.03779102
227	0x3ba262c2	0.0049556205
228	0x39daa058	0.00041699666
229	0xbcd31d55	-0.025770823
230	0xbbe7be6b	-0.00707226
231	0x3d5315a1	0.0515343
232	0x3c74bfff	0.014938354
233	0x3d5fae56	0.05460962
234	0xbd1ced4e	-0.03831225
235	0x3c33fbe5	0.010985349
236	0x3d86da4b	0.06584605
237	0xbd028ea4	-0.031874314
238	0xbcfa6c5a	-0.030569244
239	0x3d44f5f8	0.048086137
240	0xbca451e9	-0.020058589
241	0xbd0bb061	-0.034103755
242	0x3cc3ae2f	0.023886768
243	0xbcccd2e8	-0.025002912
244	0x3d540856	0.051765762
245	0x3d6f865c	0.058477744
246	0xbd8c83af	-0.06861054
247	0xbc321fb8	-0.01087182
248	0xbd1bfcb5	-0.038082797
249	0x3a59e46c	0.00083119306
250	0xbd564502	-0.052311905
251	0xbd20f7f0	-0.03929895
252	0xbd037e92	-0.03210313
253	0x3d83d991	0.06437982
254	0x3d1f67db	0.038917404
255	0xbbf0241f	-0.0073285247

bias f4 [32]
0	0xbaa97f68	-0.0012931647
1	0xba80a3a5	-0.0009814395
2	0xbd6f6490	-0.058445513
3	0xbc8bd7e4	-0.017070718
4	0x3acf22d7	0.001580323
5	0x3d8ead94	0.06966701
6	0xbac61b80	-0.0015114397
7	0x394e80ba	0.00019693645
8	0xbb04ca41	-0.0020262154
9	0x39e974ef	0.00044528345
10	0x3bf486ae	0.007462344
11	0x3ce77695	0.028254787
12	0xbcfd3736	-0.030910116
13	0xbc936396	-0.017991822
14	0x3d144000	0.036193848
15	0x3d1ff254	0.03904946
16	0xbd597cac	-0.053097412
17	0xbbdf9950	-0.006823696
18	0x37a76c87	1.9958488e-05
19	0x3d853255	0.06503741
20	0xbcbbd016	-0.022926372
21	0xbd192b29	-0.037394676
22	0x3cc43ac7	0.023953808
23	0xbd3dda9e	-0.046351068
24	0xbca3f9b0	-0.020016521
25	0xbae0f5ad	-0.0017163061
26	0xbd7e8cd7	-0.062146034
27	0x3d4b2a59	0.049600933
28	0xbd17152c	-0.036885425
29	0x3a9e0a46	0.0012057505
30	0x3c406f0a	0.011745224
31	0xbd21e2fa	-0.039523102

weight f4 [32, 32, 3, 3]
0	0xbcbc9630	-0.023020834
1	0x3c894cf6	0.01676033
2	0xbccdefb5	-0.025138715
3	0xbc691ff5	-0.014228811
4	0x3d1e135b	0.038592678
5	0x3cbe503c	0.023231618
6	0x3c6e7c79	0.014556044
7	0xbd087ac6	-0.03332021
8	0x3c8174d9	0.015802788
9	0x3c8d6425	0.017259667
10	0x3b9bb209	0.004751448
11	0x3c917ad6	0.017758768
12	0xbd474916	-0.048653685
13	0xbc285d41	-0.01027614
14	0x3b45e31e	0.0030195187
15	0x3cb480c4	0.022034056
16	0x3c909f7a	0.01765417
17	0x3c12cd52	0.008960085
18	0xbd35c588	-0.044377834
19	0x3d612967	0.054971125
20	0x3d13b9b3	0.03606577
21	0xbc07f2bc	-0.0082976185
22	0x3c3f1954	0.011663754
23	0x3ccffb32	0.025388334
24	0x3d363b59	0.044490192
25	0x3d0c8525	0.034306664
26	0x3d090b09	0.03345779
27	0x3bbc8f78	0.0057544075
28	0x3c41717c	0.011806842
29	0xbd60ff69	-0.054931078
30	0x3cb26902	0.021778587
31	0x3ceed2de	0.029153284
32	0xbd11ff7a	-0.035644032
33	0xbd1cd09a	-0.038284875
34	0x3c9d61d2	0.019211683
35	0x3b005870	0.0019583963
36	0xbd8c5628	-0.068523705
37	0xbd6fa1c3	-0.058503877
38	0xbd09b1c8	-0.03361681
39	0x3d48af40	0.048995256
40	0x3d186e77	0.037214722
41	0xbc95f84e	-0.018306877
42	0xbd4c1b47	-0.0498307
43	0x3cb6524b	0.022256037
44	0xbcd3d4a0	-0.025858223
45	0xbc167d16	-0.009185096
46	0xbb6755f0	-0.0035299025
47	0xbd3774d5	-0.044789154
48	0x3bb011c2	0.0053732106
49	0xbc6d0a1c	-0.014467742
50	0xbbf5df3c	-0.0075034183
51	0xbd41d593	-0.04732282
52	0xbd5fad6c	-0.054608747
53	0xbd7de8f7	-0.06198975
54	0xbd5a0acb	-0.05323295
55	0x3c710519	0.014710688
56	0xbc9f7a4c	-0.019467495
57	0xbd4e68a4	-0.05039276
58	0xbd210b8c	-0.039317653
59	0xbc0008cb	-0.007814596
60	0x3d0bd3b2	0.034137435
61	0xbcc29cb2	-0.023756359
62	0x3b895ab5	0.0041917213
63	0x3d3dcac5	0.046335954
64	0xbbe37fb9	-0.006942716
65	0x3be0009e	0.006836011
66	0xbd1cffe5	-0.038329978
67	0xbd6a9e2c	-0.05727975
68	0x3c889385	0.016671905
69	0xbc5fe6f1	-0.013665901
70	0xbd9f4651	-0.07777084
71	0x3d296b6e	0.04136222
72	0xbd144e46	-0.03620746
73	0xbd59412a	-0.05304066
74	0x3cf355d2	0.029704008
75	0xbd011a13	-0.031519007
76	0xbd7b6da9	-0.061383877
77	0x3ba31e5a	0.0049779834
78	0xbcc12970	-0.02357933
79	0x3d431afe	0.047633164
80	0x3d3f2449	0.046665464
81	0x3d244392	0.040103503
82	0xbd55912a	-0.052140392
83	0x3aa49606	0.0012556917
84	0x3d4ee1d2	0.050508328
85	0x3d26646c	0.040623114
86	0xbd0964d7	-0.033543434
87	0xbd5bea16	-0.05369004
88	0xbd431517	-0.047627535
89	0xbaad7d4c	-0.0013236194
90	0x3ce28b47	0.027654303
91	0xbd04ff02	-0.032469757
92	0x3ba0ef23	0.00491132
93	0x3c4c26a2	0.012460383
94	0x3c28de22	0.010306867
95	0xbc99e46f	-0.018785683
96	0xbd47ab13	-0.048747133
97	0xbc25e71e	-0.010125903
98	0xbbbfefce	-0.0058574444
99	0xba502b53	-0.0007941026
100	0xbc5590b6	-0.01303499
101	0xbdac576c	-0.08415112
102	0xbba59694	-0.0050533507
103	0xbd8e5c83	-0.06951239
104	0x3cbf53be	0.023355361
105	0xbd192918	-0.037392706
106	0xbd5f5e9f	-0.054533597
107	0xbd5e99df	-0.05434596
108	0xbcb739c0	-0.022366405
109	0x3ca12952	0.019673023
110	0xbcf2f214	-0.029656447
111	0xbd676dac	-0.056501076
112	0xbbda4848	-0.0066614486
113	0x3d0e1b35	0.034693915
114	0xbc2a0020	-0.010376006
115	0x3a30a300	0.0006738156
116	0xbd16fb42	-0.036860712
117	0x3d617181	0.055039886
118	0xbc977660	-0.018489063
119	0xbb5b65e0	-0.003347747
120	0xbc56b6f8	-0.013105147
121	0xbd07ad40	-0.03312421
122	0xbc833982	-0.016018633
123	0xbd077176	-0.03306719
124	0xbd42deee	-0.047575884
125	0x3d1f0673	0.03882451
126	0xbcabb623	-0.020960873
127	0xbca07b8d	-0.019590164
128	0xbd2d3d47	-0.042294767
129	0x3d3a46f4	0.045477822
130	0xbc9fd634	-0.01951132
131	0xbac3b006	-0.0014929778
132	0xbd12c51f	-0.03583252
133	0xbd6d36e5	-0.05791368
134	0xbcd94212	-0.026520763
135	0xbb81f373	-0.003965789
136	0xbcaa6180	-0.020798445
137	0x3a269f70	0.00063561555
138	0x3c7ce3f1	0.015435205
139	0xbc097746	-0.008390253
140	0xbcd122a4	-0.025529213
141	0x3cec9b43	0.028882628
142	0xbdb69dbd	-0.08916805
143	0x3cc60934	0.02417431
144	0xbd2f3e3a	-0.042783953
145	0xbd262424	-0.04056181
146	0x3d618fbd	0.05506872
147	0x3d3599d7	0.044336166
148	0x3d3e9e19	0.046537492
149	0x3d3d6161	0.046235446
150	0x3d34373d	0.04399799
151	0xbd4c2008	-0.049835235
152	0xbd61e5e2	-0.055150874
153	0xbd444744	-0.047919527
154	0xbc85e028	-0.016342238
155	0x3c86da56	0.016461533
156	0xbd12a9b8	-0.035806388
157	0x3d2aae97	0.041670408
158	0xbc9fa0fc	-0.019485943
159	0xbd4921a0	-0.049104333
160	0x3cca2726	0.02467687
161	0x3c5027e4	0.012704823
162	0xbd06e654	-0.0329345
163	0xbaf58f43	-0.0018734712
164	0xbd8d0641	-0.068859585
165	0xbabb89ac	-0.0014307997
166	0x3d321c41	0.043483976
167	0x3cd61cea	0.026136834
168	0x3cef6992	0.029225145
169	0xbd23886d	-0.039925028
170	0x3d0a4d56	0.03376516
171	0x3d47a13b	0.048737746
172	0x3c915a63	0.017743295
173	0x3b1648b2	0.0022931513
174	0x3d433f06	0.047667526
175	0xbcd4619b	-0.025925448
176	0xbda15e17	-0.07879274
177	0xbcf56b00	-0.029958248
178	0xbc3b271f	-0.011422901
179	0xbce9cb96	-0.02853946
180	0xbce37551	-0.027765902
181	0xbd2f8520	-0.042851567
182	0x3d22f555	0.039784748
183	0xbc77ddc8	-0.01512856
184	0x3d5a36ed	0.053275038
185	0x3c3dc4d4	0.011582572
186	0xbd6d83e0	-0.057987094
187	0x3d2bad5b	0.04191337
188	0x3cce56f6	0.02518795
189	0xbb035220	-0.0020037964
190	0x3c10663c	0.008813437
191	0xbd032dcc	-0.032026097
192	0xbd3a9deb	-0.04556076
193	0x3cb3c512	0.021944556
194	0xbca4aa1c	-0.020100646
195	0x3d5ddb8d	0.054164458
196	0xbd48ad64	-0.048993483
197	0x3c7cbaa4	0.015425358
198	0xbc98cc0c	-0.018651985
199	0xbbdbb650	-0.006705083
200	0x3c80a649	0.015704291
201	0x3ba5b253	0.0050566583
202	0xbc6eec93	-0.014582771
203	0xbd76ced4	-0.06025584
204	0xbd076173	-0.03305192
205	0x3c915cc4	0.01774443
206	0xbd43ac2f	-0.04777163
207	0x3c96d196	0.018410485
208	0x3d0ab21b	0.03386126
209	0x3d60290f	0.054726657
210	0xbc884236	-0.016633134
211	0x3d12d867	0.03585091
212	0xbd08f1a8	-0.033433586
213	0xbd268500	-0.040654182
214	0xbd316eeb	-0.04331867
215	0x3d16dad5	0.03682979
216	0xbd17c823	-0.0370561
217	0x3cdb8bf6	0.026800137
218	0x3c321ab4	0.010870624
219	0x3d43cbb5	0.047801692
220	0xbbde5550	-0.0067850724
221	0xbb80b248	-0.003927503
222	0x3ca3e486	0.02000643
223	0x3d6b88d5	0.05750354
224	0x3d3fb80d	0.046806384
225	0xbb305d00	-0.00269109
226	0xbd927da1	-0.07152868
227	0xbd2e9076	-0.042618237
228	0x3d2dae5c	0.04240261
229	0x3ce74f67	0.028236104
230	0x3cb82439	0.02247821
231	0x3b8e10da	0.004335505
232	0xbd6dc099	-0.058045004
233	0xbd7503f8	-0.059818238
234	0x3d624df1	0.055250112
235	0x3c32752c	0.010892194
236	0x3c1bc65c	0.009507742
237	0x3c9d7aa6	0.019223522
238	0xbc94fcda	-0.018186975
239	0x3c9002b2	0.01757941
240	0xbd36b36c	-0.044604704
241	0x3cd2a14e	0.025711682
242	0xbd6251e6	-0.055253886
243	0xbd77784f	-0.06041747
244	0xbbe84c8b	-0.0070892028
245	0xbd02d77f	-0.031943794
246	0xbcec8c90	-0.02887562
247	0x3b35f69e	0.0027765404
248	0xbbb7c4c5	-0.0056081736
249	0xbd8778a9	-0.06614811
250	0xbc3feaf4	-0.011713732
251	0xbd876287	-0.066105895
252	0xbd0cd79c	-0.03438531
253	0xbcc33992	-0.023831163
254	0x3be76058	0.0070610456
255	0xbd48d425	-0.04903044

bias f4 [32]
0	0xbc3b01cd	-0.011414004
1	0x3d8f2809	0.06990058
2	0xbc4cb610	-0.012494579
3	0xbc630059	-0.013855063
4	0xbd2db7a6	-0.04241147
5	0x3d4e62e9	0.050387297
6	0xbd563b6c	-0.052302763
7	0xbc849c70	-0.016187876
8	0x3d7d2b33	0.061808776
9	0xbd364b0b	-0.04450516
10	0x3dcfb4e5	0.10141925
11	0x3d56d06a	0.052444853
12	0x3de71d5d	0.112848975
13	0x3daeea59	0.08540792
14	0x3cbd3db9	0.02310072
15	0xbd439394	-0.047748163
16	0xbd2cc46e	-0.042179517
17	0x3d1097f3	0.03530116
18	0xbd3b8767	-0.045783427
19	0x3da559c7	0.08073764
20	0xbc68e28a	-0.014214167
21	0x3dadb6f5	0.08482162
22	0x3dd3af8d	0.10336218
23	0xbc5ba568	-0.013406135
24	0xbd14ab23	-0.03629602
25	0xbcdfe0a5	-0.027328799
26	0xbd8868e5	-0.06660632
27	0x3de74989	0.112933226
28	0x3db45fb7	0.08807319
29	0xbd702de5	-0.05863752
30	0xbd80ced1	-0.06289447
31	0x3ceec603	0.029147154

weight f4 [10, 288]
0	0x3d9d08e8	0.07667714
1	0x3df6da23	0.12053325
2	0xbc489fad	-0.012245101
3	0xbd223fab	-0.0396115
4	0xbc539708	-0.012914427
5	0xbd43a978	-0.04776904
6	0x3e0f3056	0.13983282
7	0xba0fed5e	-0.00054903876
8	0xbdc9e464	-0.09858015
9	0x3e0c65ec	0.13710755
10	0x3c376d97	0.011195562
11	0x3d21129e	0.039324395
12	0x3d7275eb	0.059194487
13	0x3dcf7eb4	0.101315886
14	0xbcf8cb66	-0.030370425
15	0xbdc5713d	-0.09640739
16	0xbd2c4804	-0.042060867
17	0xbdf4b00a	-0.11947639
18	0x3e04df2b	0.12975757
19	0xbd4283ea	-0.047489084
20	0x3d522ea8	0.051314026
21	0xbd92c796	-0.07166974
22	0xbd21686e	-0.039406233
23	0xbe0d65a2	-0.13808301
24	0x3d9b825e	0.07593225
25	0x3e0e9e7b	0.13927643
26	0x3d3ab3c0	0.04558158
27	0x3d1970f8	0.03746125
28	0xbd712dd8	-0.05888161
29	0x3d1a3791	0.03765065
30	0xbd51d086	-0.051224254
31	0x3d8f2371	0.06989182
32	0xbd60772a	-0.054801144
33	0xbe0209d1	-0.12699057
34	0x3ddb55a5	0.10709695
35	0xbda6850a	-0.08130844
36	0xbd0f7544	-0.035023943
37	0xbdccb270	-0.09994972
38	0xbdb76112	-0.089540616
39	0x3ba75f40	0.00510779
40	0x3d24096c	0.040048048
41	0xbdd92e08	-0.10604483
42	0xbdf7f69d	-0.121075846
43	0xbc891af8	-0.016736493
44	0x3db1f86e	0.08689962
45	0xbde50861	-0.11183239
46	0x3e02f304	0.12788016
47	0x3d9a7a28	0.07542831
48	0x3d3f7c48	0.046749383
49	0x3ccc272c	0.024921022
50	0x3e0a5185	0.1350766
51	0x3c957596	0.018244546
52	0x3e12b2e0	0.14326048
53	0xbdaa5155	-0.08316294
54	0x3dbb5936	0.09147875
55	0xbdfcccd6	-0.12343757
56	0xbd016262	-0.031587966
57	0x3d1c3de0	0.038144946
58	0xbdf7b739	-0.12095494
59	0x3cccdda0	0.025008023
60	0xbca9b300	-0.020715237
61	0x3de839da	0.11339159
62	0x3d9fe768	0.07807809
63	0x3e0a6d6d	0.13518305
64	0xbd8e2628	-0.069408715
65	0xbd6405c8	-0.055669576
66	0xbce187cb	-0.027530571
67	0x3c98a8fa	0.018635262
68	0xbdf571c8	-0.11984593
69	0xbc64b65a	-0.013959492
70	0xbc515348	-0.012776203
71	0x3d68f3dd	0.05687319
72	0xbdc29e16	-0.09502809
73	0x3c79eb88	0.015253909
74	0xbd853716	-0.065046474
75	0xbdd59578	-0.104288995
76	0xbdd03ec0	-0.101682186
77	0x3d730813	0.059333872
78	0xbda83b75	-0.082144655
79	0xbd5e9bd3	-0.054347824
80	0x3de81753	0.11332574
81	0xbc899738	-0.01679574
82	0x3d97cd7e	0.074122414
83	0xbd5f32ac	-0.054491684
84	0xbc660590	-0.014039412
85	0x3cacf417	0.021112485
86	0xbd18630e	-0.03720384
87	0x3e02bf57	0.12768303
88	0xbdd9315e	-0.10605119
89	0xbe0c5d48	-0.13707459
90	0xbd5b0c74	-0.053478673
91	0x3c9cae63	0.019126123
92	0xbb47f7ff	-0.0030512807
93	0x3d09db3d	0.033656348
94	0xbd4c8dba	-0.04993985
95	0xbde99c74	-0.11406794
96	0xbdd45aa0	-0.10368848
97	0xbd0a0582	-0.03369666
98	0xbdf66338	-0.12030643
99	0xbdfb6815	-0.122757114
100	0x3cb2e349	0.021836894
101	0x3d654ea4	0.0559832
102	0xbd05c959	-0.032662723
103	0x3e006f2a	0.12542406
104	0xbd854edc	-0.06509182
105	0xbde5e63b	-0.112255536
106	0xbddc3f93	-0.10754313
107	0x3ddb49ec	0.10707459
108	0xbc984e4d	-0.018592024
109	0xbd270c63	-0.040783297
110	0xbdc7c9d8	-0.097552955
111	0xbd5e92d9	-0.054339264
112	0x3dc383cc	0.09546623
113	0x3c3d6466	0.011559581
114	0xbdeecbb2	-0.116599455
115	0xbdc72a7e	-0.097249016
116	0x3d44f1b9	0.048082087
117	0x3da683d5	0.08130614
118	0xbe0998a4	-0.13437134
119	0xbaf8a47a	-0.0018969916
120	0xbd9c1745	-0.07621626
121	0x3d884474	0.066536814
122	0x3cf51fc1	0.029922368
123	0xbe16f5bc	-0.14742178
124	0x3d7cd01d	0.06172191
125	0xbd9c3ffa	-0.0762939
126	0x3da2287c	0.07917878
127	0x3ce45d90	0.027876645
128	0xbc8ff871	-0.01757452
129	0x3cca9d5d	0.02473324
130	0x3dc9f24a	0.09860666
131	0x3e00d85e	0.12582538
132	0xbded10cb	-0.11575469
133	0xbc0cb08e	-0.008587016
134	0x3d8380d3	0.06421056
135	0xbd7ebeca	-0.06219367
136	0x3d1e7568	0.038686186
137	0xbdb40f5c	-0.08791992
138	0x3e019aaf	0.12656663
139	0xbda97d70	-0.082758784
140	0x3da6e11e	0.081484064
141	0xbc853b28	-0.01626356
142	0xbdc0dda9	-0.09417278
143	0xbd9f2dfe	-0.07772444
144	0xbc8f6fb1	-0.017509313
145	0x3d8d6d6b	0.069056354
146	0x3d40a254	0.04702981
147	0xbca4ed6a	-0.02013274
148	0x3e06425e	0.13111255
149	0xbc7a6432	-0.0152826775
150	0x3b211c4f	0.0024583524
151	0x3db0b9a8	0.08629161
152	0x3e19143f	0.1494913
153	0xbd5432b7	-0.051806178
154	0xbd793ca2	-0.06084884
155	0xbe21b4c5	-0.15791614
156	0x3b09f201	0.0021048787
157	0x3c9f0a76	0.019414168
158	0xbe5d5b04	-0.21616751
159	0x3d828b22	0.06374194
160	0x3d992424	0.074775964
161	0xbd1ebb14	-0.03875263
162	0xbd1bf8e6	-0.038079165
163	0x3d9ba4f6	0.07599823
164	0xbdfb2064	-0.122620374
165	0xbdac20e7	-0.08404713
166	0xbc59f5f0	-0.013303265
167	0x3df98bb6	0.12184851
168	0x3d3ade38	0.04562208
169	0x3dfcf396	0.12351148
170	0xbd9d6050	-0.07684386
171	0xbd84b10c	-0.064790815
172	0xbe01dc9a	-0.12681809
173	0xbda9a62b	-0.08283647
174	0x3dcf1979	0.101122804
175	0xbcf53f98	-0.02993755
176	0xbdad1b23	-0.084524415
177	0x3dff4696	0.12464635
178	0x3d8efc5e	0.06981729
179	0xbc9c48e5	-0.019077728
180	0xbd488216	-0.048952185
181	0xbc2c0270	-0.010498628
182	0xbd83f7ca	-0.064437464
183	0x3dd4a3e8	0.10382825
184	0xbdf31504	-0.11869243
185	0x3db9d48c	0.09073743
186	0xbdfcd68e	-0.123456106
187	0xbcf92e8c	-0.030417703
188	0x3d58ea28	0.052957684
189	0xbd842146	-0.06451659
190	0x3b6a5c03	0.003576041
191	0x3d7ccdbf	0.061719652
192	0xbd0b62c7	-0.03402975
193	0x3d83836c	0.06421551
194	0x3dee00c2	0.11621238
195	0x3ccef46b	0.025263032
196	0xbd84c68a	-0.06483181
197	0xbdc58565	-0.096445836
198	0xbe09b77a	-0.13448897
199	0x3dee55bc	0.11637446
200	0xbd824698	-0.06361121
201	0xbe0327c6	-0.12808141
202	0x3e1c9c29	0.15293945
203	0xbd8a2c6a	-0.067467526
204	0xbe05bb3e	-0.13059708
205	0x3dce4bd4	0.10073057
206	0xbdfd5627	-0.12369948
207	0xbc936a01	-0.017994883
208	0xbdd43f6d	-0.1036366
209	0xbd4de977	-0.050271478
210	0x3c6df21e	0.014523057
211	0xbcf2784c	-0.029598378
212	0xbc554407	-0.013016707
213	0xbd50550a	-0.05086235
214	0xbddc601d	-0.1076052
215	0xbd7cfb3f	-0.061763044
216	0x3decfa1d	0.11571143
217	0xbd81fe78	-0.06347364
218	0x3d839064	0.06424025
219	0xbe14416e	-0.14478084
220	0xbd3ec339	-0.046572898
221	0x3e07e0fc	0.13269418
222	0xbdce37de	-0.100692496
223	0xbd91b018	-0.07113665
224	0x3cc7698e	0.024342325
225	0xbc1b2214	-0.009468574
226	0x3db3e32d	0.08783565
227	0x3ddd1204	0.10794452
228	0x3e027847	0.12741195
229	0x3db1551d	0.08658812
230	0x3d5cc6d6	0.053900562
231	0x3dd9ceab	0.10635122
232	0x3d4e6a17	0.050394144
233	0x3e081db4	0.13292581
234	0x3cbafcf0	0.022825688
235	0x3d10c63a	0.035345294
236	0x3ce819d0	0.02833262
237	0xbd9fc9fc	-0.07802197
238	0xbccaed80	-0.024771452
239	0x3d037a0c	0.032098815
240	0x3e015c0f	0.12632774
241	0x3c40bde0	0.01176402
242	0x3da60eb8	0.08108276
243	0x3dfde06d	0.123963214
244	0xbc86f0a8	-0.016472176
245	0x3de221e2	0.11041619
246	0x3c64642e	0.0139399
247	0x3e11d5e6	0.14241752
248	0xbdf1fe87	-0.11816125
249	0x3dedfdfe	0.11620711
250	0x3d3259a1	0.043542508
251	0x3dbd8edf	0.09255766
252	0xbe01375a	-0.12618771
253	0x3d85357d	0.06504343
254	0x3c8683bb	0.016420236
255	0x3a3c55bb	0.00071844057

bias f4 [10]
0	0xbc808a7d	-0.015691036
1	0x3d9cf408	0.07663733
2	0xbd279b32	-0.04091949
3	0xbc289515	-0.01028945
4	0xbd706356	-0.058688484
5	0x3d0742c2	0.03302265
6	0x3c55b504	0.013043646
7	0x3afa1c37	0.0019081895
8	0x3cb36121	0.0218969
9	0x3dfac475	0.122445025

weight f4 [6, 10]
0	0x3e7586f1	0.23977257
1	0xbd0358ba	-0.032067038
2	0x3f1341f1	0.57522494
3	0xbe05de91	-0.13073184
4	0xbef85a5b	-0.48506436
5	0x3ed6338a	0.41836196
6	0x3f18a2cf	0.59623426
7	0x3e7f056a	0.24904409
8	0xbd291a39	-0.041284773
9	0x3eaa339f	0.3324251
10	0x3f0674b6	0.52521837
11	0xbe0d7f50	-0.13818097
12	0x3ed5f50a	0.41788512
13	0x3e4cb18d	0.19989605
14	0xbeb1e3c2	-0.34744078
15	0x3e96467d	0.29350653
16	0x3ea861ba	0.3288706
17	0xbeac3a46	-0.3363821
18	0x3f06baf0	0.52628994
19	0xbe98ba3b	-0.29829583
20	0x3e506197	0.20349728
21	0x3e3b2c49	0.18278612
22	0x3da62668	0.08112794
23	0x3e13fd10	0.14452004
24	0x3e21ea10	0.15811944
25	0xbef5bfb6	-0.47997826
26	0x3e3470dc	0.17621177
27	0xbf1459ff	-0.57949823
28	0xbf142371	-0.5786658
29	0x3df299de	0.11845754
30	0xbd80ede0	-0.06295371
31	0x3eac11ad	0.33607236
32	0x3f0f8dbf	0.5607566
33	0xbecd4ad5	-0.40096155
34	0xbedb5324	-0.4283687
35	0xbe0d0b45	-0.1377383
36	0xbe97371e	-0.2953424
37	0xbf1104d5	-0.56648
38	0xbdee2a43	-0.116291545
39	0x3f00e643	0.5035135
40	0x3ead8153	0.3388773
41	0x3e3cd7af	0.18441652
42	0xbe6667ec	-0.2250058
43	0xbd3e22e2	-0.046419986
44	0xbe05a518	-0.1305126
45	0xbf09221c	-0.5356767
46	0xbea97c72	-0.33102757
47	0x3e95eb56	0.2928111
48	0xbe3bdedd	-0.18346734
49	0x3d7f5509	0.062336955
50	0xbe5983ef	-0.21241735
51	0x3df36fc4	0.11886552
52	0xbf1a67d4	-0.6031468
53	0x3e5c4d65	0.21513899
54	0xbe3aba0a	-0.18235031
55	0xbd8c09c8	-0.06837803
56	0x3e1179f4	0.14206678
57	0x3d70d2df	0.058794852
58	0x3efd8561	0.49515823
59	0xbebc65ba	-0.3679636

bias f4 [6]
0	0x3d559543	0.0521443
1	0xbde591e0	-0.11209464
2	0xbe86eedf	-0.2635412
3	0xbdb006ba	-0.08595033
4	0xbd83d040	-0.06436205
5	0x3e508270	0.20362258
