models/2024-04-16T12-06-16-027871_SAC_MinAtar_SpaceInvaders/critic_local.pt (torch, 90173 bytes, 8 tensors)

weight f4 [32, 24, 3, 3]
0.05484149 -0.008888669 0.037035987 -0.024539698 -0.058889247 -0.05732691 -0.06007515 0.014109566
-0.00058733515 0.13082539 0.08154267 0.007222757 0.08178291 0.13009767 0.030372987 0.008929197
-0.0072263945 0.0019080292 0.19076174 0.2502416 0.20658147 0.14102049 0.24646845 0.21845903
0.1630087 0.12139874 0.14008646 -0.032318514 -0.083006665 -0.09808588 0.034846496 -0.058922403
-0.07357603 0.05077727 0.0011333334 -0.08979545 0.018190624 0.06451321 -0.0030531723 -0.0632148
-0.051384743 -0.051270474 0.006847655 -0.0530396 0.057830434 -0.017123159 -0.10151209 -0.08817498
-0.1159421 -0.096551396 -0.06892388 -0.024182975 -0.03689103 0.009238464 0.00018590689 -0.016272508
0.034990795 0.017263904 -0.0030825809 0.0063238367 -0.03494511 -0.019404743 0.04945353 0.16080025
0.107274875 0.048638713 0.24260616 0.20282535 0.14778681 0.11213602 0.119849704 0.12579986
0.122660466 0.18568194 0.25203654 0.099274755 0.09725592 0.23219179 0.11146459 0.11263648
0.18320794 0.051340327 0.024980111 -0.0013503169 0.08579976 -0.012479286 -0.01739489 0.10405473
-0.027281867 0.014735246 0.021512415 0.021716736 0.06606179 -0.042965267 0.004852631 -0.04119428
-0.015499357 -0.073873006 0.068267845 0.083304524 -0.049529433 -0.026351117 0.0058393367 0.032950565
0.000413318 -0.017601522 -0.0066330954 0.021147711 0.00039415061 0.06724852 0.06623556 0.00998427
0.003632456 0.032995984 -0.06865449 -0.0009192338 0.013698688 0.20630486 0.109824196 0.088398814
0.23423031 0.09214935 0.16301526 0.10599695 0.08682366 0.051246703 0.2649699 0.28699383
0.26189888 0.3108546 0.31512603 0.35486636 0.201998 0.26143816 0.24757902 -0.030805675
-0.10529027 -0.02577062 0.018486226 -0.16373202 -0.07843264 0.012395459 -0.14341082 -0.11044146
-0.08403222 -0.058621153 -0.02999429 0.0008193148 0.0104748765 -0.06670435 -0.043649573 0.013440325
-0.04600917 0.14776139 -0.012659358 0.25468904 0.44573936 -0.051008373 0.48542896 0.4372974
0.048592974 0.35458222 -0.04369515 -0.03285935 -0.052282155 0.05556708 -0.008165006 -0.051247023
-0.06783883 -0.06778194 0.1135123 0.13911174 0.006294223 0.05305895 0.13835606 0.10959849
0.09654774 0.09272649 0.027229551 0.029235069 0.15541649 0.22430728 0.27044788 0.12882005
0.23814194 0.16671482 0.0897072 0.14430463 0.19763175 0.041924767 -0.15514047 -0.16363238
0.03419156 -0.0982483 -0.043458246 0.12511972 0.035911966 -0.07176068 -0.04194909 -0.0030438104
-0.005522847 -0.039173402 0.083350055 -0.02171567 -0.045187432 -0.00846272 0.06959083 -0.10453467
-0.1445198 -0.1509726 -0.10201935 -0.09853125 -0.081378624 -0.029820137 -0.17344682 -0.049102847
0.034895524 0.02129884 0.05266826 -2.9824674e-05 0.029172882 -0.040660344 -0.012422908 0.0019956012
0.0016665728 0.03533485 0.12385415 0.024224598 0.110454015 0.07198133 0.052595127 0.107622005
0.062182795 0.051617112 0.14189768 0.2303401 0.25482213 0.1350635 0.15827253 0.23097584
0.08920248 0.12553857 0.14604114 -0.024972193 0.0005929869 -0.045078564 -0.07619835 -0.05333747
-0.13069926 -0.0009421 -0.09804653 -0.11640735 -0.03930861 0.013956865 0.018989375 0.003334936
00000000: 78a1 603d c8a1 11bc 0cb3 173d 7a07 c9bc
00000010: da35 71bd 9fcf 6abd 5c11 76bd cf2b 673c
00000020: 65f7 19ba 17f7 053e d8ff a63d e1ac ec3b
00000030: cc7d a73d 5338 053e c5d0 f83c c44b 123c
00000040: 64cb ecbb d616 fa3a 0c57 433e ab1f 803e
00000050: 188a 533e ad67 103e 3a62 7c3e b9b3 5f3e
00000060: c1eb 263e e79f f83d d372 0f3e 6b60 04bd
00000070: 66ff a9bd 40e1 c8bd 33bb 0e3d 9e58 71bd
00000080: 08af 96bd d4fb 4f3d 5c8c 943a ade6 b7bd
00000090: 8104 953c 801f 843d bb17 48bb c376 81bd
000000a0: cf78 52bd fd00 52bd 4b62 e03b 0d40 59bd
000000b0: 9bdf 6c3d de45 8cbc 92e5 cfbd 1595 b4bd
000000c0: 0d73 edbd bdbc c5bd f727 8dbd 601b c6bc
000000d0: 0c1b 17bd ed5c 173c 00f0 4239 ec4d 85bc
000000e0: 8252 0f3d 086d 8d3c 2005 4abb 3038 cf3b
000000f0: 9b22 0fbd b2f6 9ebc c98f 4a3d d2a8 243e
00000100: eeb2 db3d 6339 473d c06d 783e 73b1 4f3e
00000110: 6d55 173e 92a7 e53d c373 f53d aed1 003e
00000120: 6935 fb3d 6823 3e3e ef0a 813e 9050 cb3d
00000130: 1d2e c73d afc3 6d3e 8c47 e43d f4ad e63d
00000140: dd9a 3b3e 3c4a 523d 17a3 cc3c 1efd b0ba
00000150: c9b7 af3d eb75 4cbc ba7f 8ebc a51a d53d
00000160: 397e dfbc 1a6c 713c ce3a b03c 4ce7 b13c
00000170: 674b 873d 59fc 2fbd d202 9f3b 55bb 28bd
00000180: 04f1 7dbc bb4a 97bd 03d0 8b3d 909b aa3d
00000190: 60df 4abd 4cde d7bc e857 bf3b 2cf7 063d
000001a0: 9ab2 d839 1131 90bc 705a d9bb f73d ad3c
000001b0: 00a6 ce39 98b9 893d 82a6 873d 1095 233c
000001c0: 800e 6e3b cc26 073d ba9a 8cbd bcf8 70ba
000001d0: 7670 603c 9541 533e 82eb e03d 700a b53d
000001e0: 12da 6f3e ccb8 bc3d 79ed 263e ee14 d93d
000001f0: 9ad0 b13d 10e8 513d 22aa 873e dbf0 923e
00000200: 9c17 863e 5628 9f3e 3358 a13e 0bb1 b53e
00000210: 90d8 4e3e 39db 853e 5b85 7d3e 2f5c fcbc
00000220: 6da2 d7bd e81c d3bc 6d70 973c 5ea9 27be
00000230: 4ba1 a0bd 5316 4b3c 49da 12be 222f e2bd
00000240: 1619 acbd bc1c 70bd 96b6 f5bc 49c7 563a
00000250: d19e 2b3c 4a9c 88bd e5c9 32bd cf34 5c3c
00000260: 1d74 3cbd c34e 173e 3269 4fbc 9a66 823e
00000270: f337 e43e 28ee 50bd 258a f83e 72e5 df3e
00000280: 6d09 473d cd8b b53e b0f9 32bd 8797 06bd
00000290: d025 56bd 4e9a 633d 84c6 05bc 66e8 51bd
000002a0: 16ef 8abd 42d1 8abd 2379 e83d 4f73 0e3e
000002b0: c53f ce3b 5754 593d 36ad 0d3e 2c75 e03d
000002c0: d2ba c53d 63e7 bd3d 8210 df3c 627e ef3c
000002d0: 8025 1f3e cfb0 653e 2578 8a3e 67e9 033e
000002e0: 7bdb 733e 4ab7 2a3e 69b8 b73d 98c4 133e
000002f0: fa5f 4a3e 4eb9 2b3d 25dd 1ebe 3f8f 27be
00000300: 730c 0c3d 6836 c9bd 4601 32bd 621f 003e
00000310: 6d18 133d 43f7 92bd cfd2 2bbd aa7a 47bb
00000320: 00f9 b4bb 4a74 20bd 6fb3 aa3d 10e5 b1bc
00000330: 7516 39bd 38a7 0abc a385 8e3d 4616 d6bd
00000340: 00fd 13be 9098 1abe 85ef d0bd c1ca c9bd
00000350: d6a9 a6bd 5c49 f4bc 0b9c 31be 1120 49bd
00000360: 9cee 0e3d e87a ae3c acba 573d 0030 fab7
00000370: f8fb ee3c 768b 26bd 7489 4bbc a2c8 023b
00000380: e770 da3a 47bb 103d 3fa7 fd3d aa72 c63c
00000390: b735 e23d f36a 933d fd6d 573d ed68 dc3d
000003a0: 63b3 7e3d 776c 533d a04d 113e 46de 6b3e
000003b0: 0c78 823e 164e 0a3e 3212 223e ee84 6c3e
000003c0: caaf b63d 2f8d 003e cf8b 153e 7c92 ccbc
000003d0: ad72 1b3a 4da4 38bd e10d 9cbd 6478 5abd
000003e0: 07d6 05be 43f7 76ba 9ecc c8bd fa66 eebd
000003f0: 1102 21bd 56ab 643c 9b8f 9b3c f18e 5a3b

bias f4 [32]
0.15809909 0.1650843 -0.058445513 -0.017070718 0.14667258 0.19622149 -0.0015420606 0.15776311
0.14239459 0.16684543 0.15930687 0.16778536 -0.030910116 -0.017991822 0.18375473 0.18280196
-0.053097412 -0.006823696 0.13774519 0.17960936 -0.022926372 -0.037394676 0.1609963 -0.046351068
-0.020016521 0.13956952 -0.062146034 0.18209228 -0.036885425 0.14027162 0.15584211 -0.039523102
00000000: bae4 213e dc0b 293e 9064 6fbd e4d7 8bbc
00000010: 5631 163e 49ee 483e f81e caba a78c 213e
00000020: e3cf 113e 87d9 2a3e 5721 233e edcf 2b3e
00000030: 3637 fdbc 9663 93bc 332a 3c3e 7030 3b3e
00000040: ac7c 59bd 5099 dfbb 130d 0d3e 84eb 373e
00000050: 16d0 bbbc 292b 19bd 37dc 243e 9eda 3dbd
00000060: b0f9 a3bc 50eb 0e3e d78c 7ebd 6676 3a3e
00000070: 2c15 17bd 5da3 0f3e 1395 1f3e fae2 21bd

weight f4 [32, 32, 3, 3]
0.02714927 0.09452702 0.06105598 0.07276312 0.14624584 0.123763904 0.13751544 0.0895739
0.120881185 0.06199822 0.086849265 0.1108058 0.038373105 0.10311903 0.107513286 0.14975055
0.14601433 0.11848592 -0.044377834 0.054971125 0.03606577 -0.0082976185 0.011663754 0.025388334
0.044490192 0.034306664 0.03345779 0.0057544075 0.011806842 -0.054931078 0.021778587 0.029153284
-0.035644032 -0.038284875 0.019211683 0.0019583963 -0.019982342 0.02901423 0.06258693 0.14436851
0.15872629 0.091804355 0.082997926 0.1575509 0.091356374 0.018777788 0.0835077 0.07080517
0.07832217 0.105070904 0.111862145 0.08127066 0.08812569 0.0663496 -0.053218145 0.014712206
-0.01953311 -0.05045672 -0.039190125 -0.007628798 0.033985406 -0.023721617 0.004363971 0.09250691
0.07730554 0.10212826 0.05268527 0.060028624 0.124113426 0.117248535 0.05436769 0.15505125
0.0133202905 0.02669922 0.1141446 0.06418399 0.05489557 0.113231175 0.10393964 0.17380914
0.15878922 0.08294258 0.03277285 0.099151134 0.13643233 0.15710786 0.07531847 0.07493014
0.085304335 0.114000544 0.07508775 0.058643006 0.10694409 0.104783885 0.1322666 0.09390075
0.08407221 0.12765858 0.114732824 0.040465742 0.0782404 0.023247661 0.080821425 0.052810155
0.13976564 0.09456273 0.08652415 0.07052025 -0.022366405 0.019673023 -0.029656447 -0.056501076
-0.0066614486 0.034693915 -0.010376006 0.0006738156 -0.036860712 0.055039886 -0.018489063 -0.003347747
-0.013105147 -0.03312421 -0.016018633 -0.03306719 -0.047575884 0.03882451 0.012625228 0.06617209
0.06486881 0.12124979 0.09697501 0.11282291 0.0905775 0.079030044 0.09543558 0.02826026
0.0643826 0.10911203 0.09086719 0.108339556 0.089108504 0.15532738 0.048258103 0.1464908
-0.042783953 -0.04056181 0.05506872 0.044336166 0.046537492 0.046235446 0.04399799 -0.049835235
-0.055150874 -0.047919527 -0.016342238 0.016461533 -0.035806388 0.041670408 -0.019485943 -0.049104333
0.02467687 0.012704823 0.019026255 0.08667429 0.024594603 0.10181337 0.16763899 0.13580467
0.17030036 0.09805738 0.151701 0.08014681 0.106477745 0.11613064 0.12441489 0.09457442
0.03999968 0.0998349 0.13123283 0.09932378 -0.027765902 -0.042851567 0.039784748 -0.01512856
0.053275038 0.011582572 -0.057987094 0.04191337 0.02518795 -0.0020037964 0.008813437 -0.032026097
-0.04556076 0.021944556 -0.020100646 0.054164458 -0.048993483 0.015425358 0.026349489 0.08442565
0.120502844 0.09539706 0.10712395 0.05345733 0.09988337 0.15619518 0.074017935 0.018410485
0.03386126 0.054726657 -0.016633134 0.03585091 -0.033433586 -0.040654182 -0.04331867 0.03682979
-0.0370561 0.026800137 0.010870624 0.047801692 -0.0067850724 -0.003927503 0.02000643 0.05750354
0.046806384 0.05244662 0.019461403 0.048809092 0.14306848 0.15046039 0.13125059 0.14130951
0.07781247 0.056195956 0.055250112 0.010892194 0.009507742 0.019223522 -0.018186975 0.01757941
-0.044604704 0.025711682 -0.055253886 -0.027219083 0.08009059 0.0776555 0.047970563 0.12143868
0.11060743 0.061934423 0.12787116 0.058497507 -0.03438531 -0.023831163 0.0070610456 -0.04903044
00000000: 2568 de3c 6297 c13d d615 7a3d d504 953d
00000010: 78c1 153e ee77 fd3d d9d0 0c3e 8572 b73d
00000020: 8e90 f73d d8f1 7d3d 07de b13d 27ee e23d
00000030: 1e2d 1d3d 1230 d33d ed2f dc3d 3558 193e
00000040: c884 153e bfa8 f23d 88c5 35bd 6729 613d
00000050: b3b9 133d bcf2 07bc 5419 3f3c 32fb cf3c
00000060: 593b 363d 2585 0c3d 090b 093d 788f bc3b
00000070: 7c71 413c 69ff 60bd 0269 b23c ded2 ee3c
00000080: 7aff 11bd 9ad0 1cbd d261 9d3c 7058 003b
00000090: 02b2 a3bc 40af ed3c 942d 803d 57d5 133e
000000a0: 2589 223e ec03 bc3d d1fa a93d 0655 213e
000000b0: 0d19 bb3d e0d3 993c 1606 ab3d 4d02 913d
000000c0: 6067 a03d 6a2f d73d fb17 e53d 3b71 a63d
000000d0: 3e7b b43d 4de2 873d 45fb 59bd 770b 713c
000000e0: e703 a0bc b5ab 4ebd d385 20bd fffa f9bb
000000f0: 4834 0b3d d653 c2bc a4ff 8e3b 4374 bd3d
00000100: 5e52 9e3d 9f28 d13d 82cc 573d 93e0 753d
00000110: 2e2f fe3d 0020 f03d a8b0 5e3d c1c5 1e3e
00000120: 593d 5a3c 53b8 da3c a5c4 e93d e572 833d
00000130: 2dda 603d bfe5 e73d 4ede d43d 06fb 313e
00000140: a499 223e cddd a93d d33c 063d c00f cb3d
00000150: ebb4 0b3e e2e0 203e 9240 9a3d f974 993d
00000160: 0ab4 ae3d 1e79 e93d 9bc7 993d a633 703d
00000170: 8105 db3d ef98 d63d e570 073e 094f c03d
00000180: 0d2e ac3d eeb8 023e 0bf9 ea3d 68bf 253d
00000190: 813c a03d e171 be3c b485 a53d 764f 583d
000001a0: b91e 0f3e 1baa c13d 9333 b13d ec6c 903d
000001b0: c039 b7bc 5229 a13c 14f2 f2bc ac6d 67bd
000001c0: 4848 dabb 351b 0e3d 2000 2abc 00a3 303a
000001d0: 42fb 16bd 8171 613d 6076 97bc e065 5bbb
000001e0: f8b6 56bc 40ad 07bd 8239 83bc 7671 07bd
000001f0: eede 42bd 7306 1f3d 0bda 4e3c 3c85 873d
00000200: f0d9 843d cf51 f83d d69a c63d b30f e73d
00000210: b280 b93d 81da a13d bb73 c33d 1082 e73c
00000220: 06db 833d 2176 df3d 9418 ba3d 21e1 dd3d
00000230: 857e b63d 240e 1f3e 4aaa 453d af01 163e
00000240: 3a3e 2fbd 2424 26bd bd8f 613d d799 353d
00000250: 199e 3e3d 6161 3d3d 3d37 343d 0820 4cbd
00000260: e2e5 61bd 4447 44bd 28e0 85bc 56da 863c
00000270: b8a9 12bd 97ae 2a3d fca0 9fbc a021 49bd
00000280: 2627 ca3c e427 503c f3dc 9b3c 4a82 b13d
00000290: 9f7a c93c 8783 d03d 8ea9 2b3e 6110 0b3e
000002a0: 3863 2e3e 4fd2 c83d 8257 1b3e 0324 a43d
000002b0: 0111 da3d e7d5 ed3d 3ccd fe3d 3cb0 c13d
000002c0: b4d6 233d 3d76 cc3d e661 063e 446a cb3d
000002d0: 5175 e3bc 2085 2fbd 55f5 223d c8dd 77bc
000002e0: ed36 5a3d d4c4 3d3c e083 6dbd 5bad 2b3d
000002f0: f656 ce3c 2052 03bb 3c66 103c cc2d 03bd
00000300: eb9d 3abd 12c5 b33c 1caa a4bc 8ddb 5d3d
00000310: 64ad 48bd a4ba 7c3c e2da d73c 5be7 ac3d
00000320: 32ca f63d 895f c33d cd63 db3d 13f6 5a3d
00000330: a78f cc3d a1f1 1f3e b796 973d 96d1 963c
00000340: 1bb2 0a3d 0f29 603d 3642 88bc 67d8 123d
00000350: a8f1 08bd 0085 26bd eb6e 31bd d5da 163d
00000360: 23c8 17bd f68b db3c b41a 323c b5cb 433d
00000370: 5055 debb 48b2 80bb 86e4 a33c d588 6b3d
00000380: 0db8 3f3d 44d2 563d 856d 9f3c 0bec 473d
00000390: 8b80 123e 4a12 1a3e 8e66 063e 71b3 103e
000003a0: 255c 9f3d bb2d 663d f14d 623d 2c75 323c
000003b0: 5cc6 1b3c a67a 9d3c dafc 94bc b202 903c
000003c0: 6cb3 36bd 4ea1 d23c e651 62bd 8efa debc
000003d0: 8906 a43d d909 9f3d c87c 443d d8b4 f83d
000003e0: 2686 e23d f3ae 7d3d a8f0 023e 159b 6f3d
000003f0: 9cd7 0cbd 9239 c3bc 5860 e73b 25d4 48bd

bias f4 [32]
0.114517294 0.08230013 -0.012494579 -0.014159671 -0.05517083 0.13071235 -0.067386575 0.09228795
0.017968217 0.038609058 0.086001456 0.118085414 0.13953103 0.10308 0.1342071 -0.05208443
0.06621263 -0.028473537 -0.045783427 0.14277145 0.044413272 0.12572291 0.08811878 0.029285775
-0.036808487 0.062077828 0.042508624 0.11754325 0.10143834 -0.05863752 0.005188029 0.12061364
00000000: 0b88 ea3d f88c a83d 10b6 4cbc f7fd 67bc
00000010: cffa 61bd 75d9 053e f901 8abd 7701 bd3d
00000020: 1532 933c 8824 1e3d 8821 b03d c4d6 f13d
00000030: 39e1 0e3e 9b1b d33d 966d 093e 7c56 55bd
00000040: 7d9a 873d 5641 e9bc 6787 3bbd ae32 123e
00000050: b1ea 353d 82bd 003e 9e77 b43d b9e8 ef3c
00000060: 7fc4 16bd 5245 7e3d 861d 2e3d 84ba f03d
00000070: e8be cf3d e52d 70bd 5700 aa3b 4904 f73d

weight f4 [10, 288]
0.15227604 0.19170707 0.03500454 0.029954901 0.028672943 -0.037635226 0.20135163 0.035874248
-0.05606097 0.17780235 0.045694724 0.082905844 0.07627563 0.11374981 0.0074105826 -0.07214283
-0.028249184 -0.06919294 0.12975757 -0.047489084 0.051314026 -0.07166974 -0.039406233 -0.13808301
0.07593225 0.13927643 0.04558158 0.03745687 -0.060482524 0.037336133 -0.051224254 0.07323018
-0.030074902 -0.11954903 0.11166008 -0.060514785 -0.014654428 -0.0788335 -0.087306805 0.020896195
0.0586535 -0.08682108 -0.10953348 -0.0042286674 0.09875704 -0.024110692 0.210644 0.16442277
0.12687992 0.09807624 0.21291353 0.101814546 0.2199331 -0.0009733483 0.09503113 -0.11520847
-0.029704325 0.044096254 -0.1147043 0.025008023 -0.020715237 0.113391675 0.07807809 0.19893467
-0.022703411 -0.013558385 0.037960924 0.07778834 -0.07067519 0.06268687 0.062397722 0.1258778
-0.08942481 -0.002645255 -0.0061893472 -0.10001799 -0.13444708 0.12448765 -0.06787935 -0.032940056
0.19247495 0.04545242 0.12930109 0.004598549 0.03752101 0.06367792 0.008502387 0.17314719
-0.088751845 -0.09053606 0.027176933 0.083215654 0.07573343 0.09232029 -0.010521108 -0.05277879
-0.030871658 0.02993811 -0.041242808 -0.06319648 0.084875844 0.14439385 -0.020241614 0.17861159
0.017560137 -0.052433927 -0.036832992 0.1916294 0.081793286 0.057667077 0.0070882887 0.038602542
0.18525131 0.107047446 -0.021641793 -0.0059943316 0.14379485 0.184335 -0.05044434 0.10265266
0.047062073 0.1331999 0.117861666 -0.015780931 0.14941768 0.020541925 0.169717 0.10776369
0.074308224 0.10249979 0.16974302 0.21219967 -0.031588305 0.07517723 0.15336561 -0.06219367
0.038686186 -0.08791992 0.12649493 -0.082758784 0.081484064 -0.01626356 -0.09417278 -0.07772444
0.03940137 0.1316206 0.1151948 0.03716538 0.19629344 0.049543858 0.056022536 0.1457
0.21265495 -0.010698855 0.017795995 -0.0492569 0.0067070127 0.05721332 -0.13058904 0.072016224
0.08600199 0.02594152 -0.038079165 0.07599823 -0.122620374 -0.08404713 -0.013303265 0.12184851
0.04562208 0.12351148 -0.07684386 0.030333556 -0.06741182 0.00410391 0.18183576 0.052294414
-0.022970269 0.21342313 0.15311407 0.0793225 -0.035138648 0.047355033 -0.011082654 0.10160525
-0.08816248 0.14847681 -0.122149974 -0.032421164 0.099473596 0.027178042 0.08602668 0.15017086
0.05242115 0.14475995 0.20061699 0.11629942 0.022908745 -0.0047105453 -0.03985921 0.21000522
0.037885323 -0.068843976 0.19383003 -0.008339004 -0.08732425 0.14971423 -0.0680539 0.008510648
-0.10055932 -0.05099021 0.029310547 0.025319219 -0.00025737527 -0.03469509 -0.07577041 -0.019652043
0.1149648 -0.0665933 0.062918976 -0.11186572 -0.049925014 0.1325875 -0.087777615 -0.07020157
0.023674786 0.04436256 0.14611812 0.17096786 0.17559391 0.13967419 0.115662396 0.15355438
0.10289612 0.19093324 0.062237956 0.073336385 0.076572746 -0.05001949 0.00738879 0.07212044
0.1628083 0.049157515 0.12888375 0.22054067 0.078052215 0.21285856 0.102510735 0.22997697
-0.0223652 0.20973787 0.13440526 0.1895546 -0.030146869 0.15866616 0.11812923 0.086223744
00000000: 40ee 1b3e dc4e 443e ec60 0f3d fb63 f53c
00000010: 85e3 ea3c 6527 1abd 1f2f 4e3e e0f0 123d
00000020: 30a0 65bd d211 363e 642a 3b3d 8aca a93d
00000030: 6636 9c3d a9f5 e83d 79d4 f23b 9fbf 93bd
00000040: d56a e7bc 07b5 8dbd 2bdf 043e ea83 42bd
00000050: a82e 523d 96c7 92bd 6e68 21bd a265 0dbe
00000060: 5e82 9b3d 7b9e 0e3e c0b3 3a3d 606c 193d
00000070: 86bc 77bd c6ed 183d 86d0 51bd b4f9 953d
00000080: a45f f6bc 1fd6 f4bd 0aae e43d 5ade 77bd
00000090: 2019 70bc 7573 a1bd e9cd b2bd 7f2e ab3c
000000a0: a73e 703d 40cf b1bd 1753 e0bd a290 8abb
000000b0: 2241 ca3d c983 c5bc 10b3 573e 715e 283e
000000c0: cfec 013e 32dc c83d 0106 5a3e 2584 d03d
000000d0: 2436 613e 4c28 7fba ae9f c23d 6bf2 ebbd
000000e0: 7c56 f3bc 469e 343d 17ea eabd a0dd cc3c
000000f0: 00b3 a9bc e539 e83d 68e7 9f3d 88b5 4b3e
00000100: 81fc b9bc fd23 5ebc ea7c 1b3d 7e4f 9f3d
00000110: 27be 90bd f961 803d c194 7f3d 1ce6 003e
00000120: 5b24 b7bd 045c 2dbb 02d0 cabb 3bd6 ccbd
00000130: 7fac 09be 62f3 fe3d 5404 8bbd 27ec 06bd
00000140: 2718 453e 512c 3a3d 8167 043e 6daf 963b
00000150: a1af 193d 9269 823d 994d 0b3c 7f4d 313e
00000160: 87c3 b5bd f86a b9bd 29a2 de3c f86c aa3d
00000170: 211a 9b3d 6c12 bd3d ba60 2cbc 932e 58bd
00000180: 8fe6 fcbc c440 f53c 38ee 28bd 286d 81bd
00000190: 63d3 ad3d fbdb 133e bed1 a5bc f5e5 363e
000001a0: 47da 8f3c f5c4 56bd 31de 16bd 7f3a 443e
000001b0: 3d83 a73d 5034 6c3d e044 e83b b31d 1e3d
000001c0: 85b2 3d3e b13b db3d 214a b1bc 196c c4bb
000001d0: f53e 133e 50c2 3c3e b99e 4ebd 8f3b d23d
000001e0: 29c4 403d 8e65 083e 7561 f13d 0347 81bc
000001f0: f300 193e 8a47 a83c 4bca 2d3e 36b3 dc3d
00000200: e92e 983d 69eb d13d 1dd1 2d3e df4a 593e
00000210: bd62 01bd 85f6 993d e00b 1d3e cabe 7ebd
00000220: 6875 1e3d 5c0f b4bd e387 013e 707d a9bd
00000230: 1ee1 a63d 283b 85bc a9dd c0bd fe2d 9fbd
00000240: 5563 213d 8dc7 063e 40eb eb3d ba3a 183d
00000250: 2601 493e 80ee 4a3d e377 653d 6132 153e
00000260: 38c2 593e 404a 2fbc e8c8 913c 9ac1 49bd
00000270: 80c6 db3b 8458 6a3d 22b9 05be 3e7d 933d
00000280: d021 b03d 5083 d43c e6f8 1bbd f6a4 9b3d
00000290: 6420 fbbd e720 acbd f0f5 59bc b68b f93d
000002a0: 38de 3a3d 96f3 fc3d 5060 9dbd 147e f83c
000002b0: 350f 8abd 187a 863b 2733 3a3e ab32 563d
000002c0: 252c bcbc 988b 5a3e efc9 1c3e d673 a23d
000002d0: 8bed 0fbd 5af7 413d 0594 35bc 6a16 d03d
000002e0: 888e b4bd 4e0a 183e c429 fabd 0ecc 04bd
000002f0: d0b8 cb3d 7ca4 de3c c22e b03d 64c6 193e
00000300: 8fb7 563d f43b 143e 8a6e 4d3e 642e ee3d
00000310: 1fab bb3c eb5a 9abb 6943 23bd 9c0b 573e
00000320: a42d 1b3d 12fe 8cbd 617b 463e 51a0 08bc
00000330: 0ed7 b2bd b04e 193e d85f 8bbd 3f70 0b3c
00000340: 0bf2 cdbd 1cdb 50bd ac1c f03c 406a cf3c
00000350: 53f0 86b9 701c 0ebd 842d 9bbd 52fd a0bc
00000360: aa72 eb3d 1162 88bd aadb 803d db19 e5bd
00000370: 2c7e 4cbd 05c5 073e c0c4 b3bd d7c5 8fbd
00000380: a0f1 c13c 84b5 353d fd9f 153e 3312 2f3e
00000390: e4ce 333e c006 0f3e 68e0 ec3d 5c3d 1d3e
000003a0: 33bb d23d 0184 433e 3aed 7e3d 6331 963d
000003b0: 2cd2 9c3d 3de1 4cbd aa1d f23b e2b3 933d
000003c0: 38b7 263e 6459 493d 1afa 033e 6ad5 613e
000003d0: d7d9 9f3d 98f7 593e 26f1 d13d 157f 6b3e
000003e0: 3937 b7bc 86c5 563e 88a1 093e 9a1a 423e
000003f0: 91f6 f6bc 6279 223e bded f13d 1396 b03d

bias f4 [10]
0.0878453 0.051213313 -0.04091949 0.03016589 -0.058688484 0.03280954 0.013043646 0.015408266
0.050392583 0.04085605
00000000: 3de8 b33d 0dc5 513d 329b 27bd 751e f73c
00000010: 5663 70bd 4c63 063d 04b5 553c f472 7c3c
00000020: 7468 4e3d ac58 273d

weight f4 [6, 10]
0.3834213 0.03293753 0.57522494 0.0013890964 -0.48506436 0.4189848 0.59623426 0.26136768
0.0885752 0.37717026 0.59023297 -0.06209076 0.41788512 0.18852647 -0.34744078 0.30397934
0.3288706 -0.36214167 0.5338922 -0.17998827 0.26862478 0.27972984 0.08112794 0.223318
0.15811944 -0.47895196 0.17621177 -0.5234818 -0.5133564 0.21972123 -0.0013933746 0.41557887
0.5607566 -0.3410573 -0.4283687 -0.1370447 -0.2953424 -0.6086211 -0.029973952 0.56576896
0.42156363 0.24408521 -0.2250058 0.040294603 -0.1305126 -0.5347238 -0.33102757 0.23078613
-0.07719276 0.038326666 -0.060255498 0.25970754 -0.6031468 0.35448194 -0.18235031 -0.05674932
0.14206678 0.10906007 0.63563764 -0.1928726
00000000: cc4f c43e 81e9 063d f141 133f 5712 b63a
00000010: 5b5a f8be 2d85 d63e cfa2 183f fcd1 853e
00000020: ea66 b53d 761c c13e 8219 173f e152 7ebd
00000030: 0af5 d53e 150d 413e c2e3 b1be 2ea3 9b3e
00000040: ba61 a83e a26a b9be 29ad 083f d84e 38be
00000050: 3089 893e c038 8f3e 6826 a63d 79ad 643e
00000060: 10ea 213e 3139 f5be dc70 343e e702 06bf
00000070: 536b 03bf 9afe 603e e5a1 b6ba c1c6 d43e
00000080: bf8d 0f3f 109f aebe 2453 dbbe 7255 0cbe
00000090: 1e37 97be 98ce 1bbf ef8b f5bc 3cd6 103f
000000a0: 30d7 d73e 79f1 793e ec67 66be f40b 253d
000000b0: 18a5 05be a9e3 08bf 727c a9be 3353 6c3e
000000c0: 3d17 9ebd 6cfc 1c3d 78ce 76bd 63f8 843e
000000d0: d467 1abf a87e b53e 0aba 3abe fa71 68bd
000000e0: f479 113e e35a df3d 26b9 223f 6580 45be

bias f4 [6]
0.03254444 0.042412687 -0.20628758 -0.17908296 -0.03862882 0.36442417
00000000: 524d 053d edb8 2d3d 0d3d 53be 8661 37be
00000010: 4139 1ebd ce95 ba3e
