models/2024-04-16T12-06-16-027871_SAC_MinAtar_SpaceInvaders/critic_target.pt (torch, 90186 bytes, 8 tensors)

weight f4 [32, 24, 3, 3]
0	0x3d60a178	0.05484149
1	0xbc11a1c8	-0.008888669
2	0x3d17b30c	0.037035987
3	0xbcc9077a	-0.024539698
4	0xbd7135da	-0.058889247
5	0xbd6acf9f	-0.05732691
6	0xbd73c93c	-0.059518084
7	0x3c859e91	0.016310962
8	0xb7c3bc60	-2.333353e-05
9	0x3e04a720	0.12954378
10	0x3da5838d	0.08081732
11	0x3bd7382b	0.006567975
12	0x3da474e2	0.08030106
13	0x3e04313f	0.12909411
14	0x3cf49a37	0.029858692
15	0x3c0c2f1a	0.008556152
16	0xbbb7c179	-0.0056077805
17	0x3b5f213d	0.0034046911
18	0x3e3dc06b	0.18530433
19	0x3e793915	0.24338181
20	0x3e4db9a7	0.20090352
21	0x3e0b59ae	0.13608429
22	0x3e760850	0.24026608
23	0x3e59bfeb	0.21264617
24	0x3e23adb4	0.15984231
25	0x3df03141	0.117281444
26	0x3e0b8c8c	0.13627833
27	0xbcf4d215	-0.029885331
28	0xbda1aad8	-0.07893914
29	0xbdc1ebe2	-0.09468819
30	0x3d19f65c	0.037588462
31	0xbd5f20f3	-0.054474782
32	0xbd8c5e36	-0.06853907
33	0x3d55d3b6	0.052203856
34	0x3bb48256	0.0055087013
35	0xbdaf8405	-0.085701026
36	0x3cad6a14	0.021168746
37	0x3d8361db	0.06415149
38	0xba9f1cfd	-0.0012139376
39	0xbd7c9ecf	-0.06167489
40	0xbd4d717a	-0.050157048
41	0xbd47b0e3	-0.048752677
42	0x3bdd95a8	0.006762225
43	0xbd52a37d	-0.051425446
44	0x3d7297bd	0.05922674
45	0xbc83ac5d	-0.0160734
46	0xbdc4a9b7	-0.09602683
47	0xbdaad5e4	-0.08341578
48	0xbde8c4b5	-0.11365644
49	0xbdb8af33	-0.090177916
50	0xbd87de20	-0.06634164
51	0xbcb87829	-0.022518234
52	0xbd024598	-0.03180465
53	0x3c24e1fa	0.010063643
54	0x3942f000	0.00018590689
55	0xbc854dec	-0.016272508
56	0x3d0f5282	0.034990795
57	0x3c8d6d08	0.017263904
58	0xbb4a0520	-0.0030825809
59	0x3bcf3830	0.0063238367
60	0xbd0ba3f5	-0.03409191
61	0xbc752792	-0.014963048
62	0x3d5892fc	0.05287455
63	0x3e1fa83f	0.15591525
64	0x3dd3ce51	0.10342086
65	0x3d43e701	0.047827724
66	0x3e730138	0.23730934
67	0x3e4c28b7	0.19937406
68	0x3e156a65	0.14591368
69	0x3ddab436	0.10678904
70	0x3dee1b7a	0.116263345
71	0x3e0173ea	0.12641874
72	0x3df5e9ed	0.120075084
73	0x3e37ba6a	0.17942205
74	0x3e7b619b	0.24548952
75	0x3dc52339	0.09625859
76	0x3dbb82a3	0.09155776
77	0x3e65adad	0.22429533
78	0x3de084b0	0.10962808
79	0x3ddbd176	0.10733311
80	0x3e35d03d	0.17755218
81	0x3d426cbe	0.047466986
82	0x3ccfa60d	0.025347734
83	0x3b18988d	0.0023284287
84	0x3da71c83	0.08159735
85	0xbc3baced	-0.011454803
86	0xbc492bb0	-0.012278482
87	0x3dcaf0e9	0.09909231
88	0xbce3175c	-0.0277211
89	0x3c9a6e04	0.018851288
90	0x3cc142bd	0.023591394
91	0x3cb5265d	0.02211302
92	0x3d8854f1	0.06656826
93	0xbd2b85d4	-0.041875675
94	0x3bd26f5e	0.0064219674
95	0xbd2744e6	-0.04083719
96	0xbc76735c	-0.015042152
97	0xbd953522	-0.07285525
98	0x3d8aa699	0.06770057
99	0x3daabf87	0.08337312
100	0xbd42cce4	-0.04755868
101	0xbccaf31a	-0.024774123
102	0x3c0d8450	0.008637503
103	0x3d0bc0d4	0.034119442
104	0x3ac8dd10	0.0015324671
105	0xbc82057c	-0.015871756
106	0xbbcd9742	-0.006274135
107	0x3cd0090b	0.025394937
108	0x39cea601	0.00039415064
109	0x3d89b998	0.06724852
110	0x3d87a682	0.06623556
111	0x3c239510	0.00998427
112	0x3b6e0e80	0.003632456
113	0x3d0726cc	0.032995984
114	0xbd89cb68	-0.0672825
115	0x3b2b4552	0.0026133847
116	0x3c5a83eb	0.013337116
117	0x3e4d5b2f	0.20054315
118	0x3dd93a36	0.10606806
119	0x3daf135b	0.08548614
120	0x3e698e5b	0.2280821
121	0x3db724ce	0.08942567
122	0x3e23c487	0.15992938
123	0x3dd1dedb	0.102475844
124	0x3daf0090	0.08545029
125	0x3d4f42b5	0.050600726
126	0x3e82fb01	0.25582126
127	0x3e8d6fed	0.27624455
128	0x3e8107a6	0.25201148
129	0x3e9ac34c	0.30227125
130	0x3e9c712c	0.30555093
131	0x3eb0f524	0.34562027
132	0x3e48a02c	0.1959235
133	0x3e82296d	0.2542223
134	0x3e7719fc	0.24131006
135	0xbcfa00d9	-0.030517982
136	0xbdcfe790	-0.10151589
137	0xbcb44b26	-0.02200849
138	0x3c99c7ff	0.018772123
139	0xbe220765	-0.15823133
140	0xbd968423	-0.07349422
141	0x3c4c3df0	0.012465939
142	0xbe0f8b58	-0.14017999
143	0xbddb089e	-0.10695003
144	0xbda671e2	-0.0812719
145	0xbd6ba80a	-0.0575333
146	0xbceb6bd9	-0.02873795
147	0x3b876665	0.0041320794
148	0x3c48be48	0.012252398
149	0xbd8470aa	-0.064668015
150	0xbd27d6d5	-0.040976364
151	0x3c791559	0.015202844
152	0xbd37ebb7	-0.04490253
153	0x3e0cc997	0.13748775
154	0xbc435434	-0.011921931
155	0x3e78cd53	0.24297075
156	0x3ed98e53	0.42491397
157	0xbd4eab26	-0.05045619
158	0x3eedb6a6	0.46428412
159	0x3ed7188d	0.42010918
160	0x3d397c0e	0.045284323
161	0x3eac5a1d	0.336625
162	0xbd32f9b0	-0.04369515
163	0xbd069787	-0.03285935
164	0xbd5625d0	-0.052282155
165	0x3d639a4e	0.05556708
166	0xbc05c685	-0.0081650065
167	0xbd51e866	-0.051247023
168	0xbd8b626d	-0.068058826
169	0xbd8288e0	-0.06373763
170	0x3de32b5a	0.11092253
171	0x3e091b28	0.13389266
172	0x3b93fee8	0.004516471
173	0x3d59b66c	0.053152487
174	0x3e07a19a	0.1324524
175	0x3dd9ef14	0.10641304
176	0x3dc3631f	0.0954039
177	0x3db3bad3	0.08775868
178	0x3ccdcca8	0.025122002
179	0x3ceffab6	0.029294353
180	0x3e190559	0.14943446
181	0x3e5ddd3f	0.2166643
182	0x3e868cab	0.26279196
183	0x3dfccd7a	0.12343879
184	0x3e6c0241	0.23047735
185	0x3e2318c1	0.15927412
186	0x3daf51b8	0.085605085
187	0x3e0e257a	0.13881484
188	0x3e44581d	0.19174238
189	0x3d2549d0	0.040353596
190	0xbe1b90dc	-0.15191978
191	0xbe2284b4	-0.15870935
192	0x3d015e5d	0.031584132
193	0xbdc32cf4	-0.095300585
194	0xbd1de447	-0.03854778
195	0x3dfa2daa	0.12215741
196	0x3d17387d	0.036919106
197	0xbd8b878d	-0.06812964
198	0xbd248a9a	-0.040171243
199	0xbb55d5a0	-0.003262855
200	0xbbd7d12f	-0.006586216
201	0xbd1a6002	-0.037689216
202	0x3daaaf62	0.08334233
203	0xbcb97b03	-0.022641664
204	0xbd3168d3	-0.04331286
205	0xbc15a91e	-0.009134559
206	0x3d8abaed	0.067739345
207	0xbdccd05b	-0.10000678
208	0xbe0e3d84	-0.13890654
209	0xbe15ed1e	-0.14641234
210	0xbdca8062	-0.09887768
211	0xbdc58b24	-0.096456796
212	0xbda326dd	-0.07966397
213	0xbcd52165	-0.0260169
214	0xbe2ba6ae	-0.16762802
215	0xbd3e4d3a	-0.046460368
216	0x3d0eee9c	0.034895524
217	0x3cae7ae8	0.02129884
218	0x3d57baac	0.05266826
219	0xb7fa3000	-2.9824674e-05
220	0x3ceefbf8	0.029172882
221	0xbd268b76	-0.040660344
222	0xbc401501	-0.011723758
223	0x3b2c9635	0.0026334648
224	0x3b74d411	0.0037357847
225	0x3d0bfd5e	0.034177177
226	0x3dfed99f	0.12443852
227	0x3cce942b	0.025217136
228	0x3dde5fa7	0.10858088
229	0x3d92832c	0.07153925
230	0x3d545ea8	0.051848084
231	0x3ddb5ac4	0.107106715
232	0x3d818632	0.06324424
233	0x3d58b31e	0.052905194
234	0x3e0c012c	0.13672322
235	0x3e64eb8e	0.22355482
236	0x3e7f2f48	0.2492038
237	0x3e050eb0	0.12993884
238	0x3e1c64b5	0.15272792
239	0x3e66874d	0.2251255
240	0x3dafad58	0.085779846
241	0x3df57e53	0.11986985
242	0x3e11c707	0.14236079
243	0xbcb9f5f7	-0.022700293
244	0x3bc1d67f	0.0059154625
245	0xbd242dc0	-0.040082693
246	0xbd970993	-0.07374873
247	0xbd4872b8	-0.04893753
248	0xbe01029e	-0.12598655
249	0x3a1a9036	0.0005896123
250	0xbdbf4805	-0.093399085
251	0xbde6b36c	-0.11264691
252	0xbd225545	-0.0396321
253	0x3c8cd81a	0.017192889
254	0x3ca4686f	0.020069329
255	0x3b136ac4	0.0022494057

bias f4 [32]
0	0x3e20c6c0	0.15700817
1	0x3e27ed06	0.16399011
2	0xbd6f6490	-0.058445513
3	0xbc8bd7e4	-0.017070718
4	0x3e1513d4	0.14558345
5	0x3e47d0fe	0.19513318
6	0xbaca1ea1	-0.0015420505
7	0x3e206d26	0.15666637
8	0x3e10afa4	0.14129502
9	0x3e29bae3	0.16575198
10	0x3e2204a7	0.15822087
11	0x3e2ab283	0.1666966
12	0xbcfd3736	-0.030910116
13	0xbc936396	-0.017991822
14	0x3e3b0bcc	0.18266219
15	0x3e3a131c	0.18171352
16	0xbd597cac	-0.053097412
17	0xbbdf9950	-0.006823696
18	0x3e0bf2b5	0.13666804
19	0x3e36d087	0.17852984
20	0xbcbbd020	-0.02292639
21	0xbd192b29	-0.037394676
22	0x3e23bff0	0.15991187
23	0xbd3dda9e	-0.046351068
24	0xbca3f9b0	-0.020016521
25	0x3e0dceee	0.13848469
26	0xbd7e8cd7	-0.062146034
27	0x3e395a9d	0.18100972
28	0xbd17152c	-0.036885425
29	0x3e0e852b	0.13917987
30	0x3e1e77c6	0.15475377
31	0xbd21e2fa	-0.039523102

weight f4 [32, 32, 3, 3]
0	0x3cd3c27f	0.025849579
1	0x3dbe3799	0.09287948
2	0x3d729e64	0.059233084
3	0x3d91f1ca	0.07126196
4	0x3e1411cf	0.14459918
5	0x3dfa0476	0.12207882
6	0x3e0b3ee2	0.13598207
7	0x3db42d6e	0.087977275
8	0x3df44989	0.11928088
9	0x3d78e6e0	0.060767055
10	0x3dae97f4	0.085250765
11	0x3ddf4eb7	0.109036855
12	0x3d1748bc	0.0369346
13	0x3dcff202	0.10153581
14	0x3dd8dd8b	0.10589131
15	0x3e17d3da	0.14826909
16	0x3e13f321	0.14448215
17	0x3def80b8	0.11694473
18	0xbd35c588	-0.044377834
19	0x3d612967	0.054971125
20	0x3d13b9b3	0.03606577
21	0xbc07f2bc	-0.0082976185
22	0x3c3f1954	0.011663754
23	0x3ccffb32	0.025388334
24	0x3d363b59	0.044490192
25	0x3d0c8525	0.034306664
26	0x3d090b09	0.03345779
27	0x3bbc8f78	0.0057544075
28	0x3c41717c	0.011806842
29	0xbd60ff69	-0.054931078
30	0x3cb26902	0.021778587
31	0x3ceed2de	0.029153284
32	0xbd11ff7a	-0.035644032
33	0xbd1cd09a	-0.038284875
34	0x3c9d61d2	0.019211683
35	0x3b005870	0.0019583963
36	0xbcae8193	-0.02130202
37	0x3cdfafd0	0.027305514
38	0x3d7894eb	0.060688894
39	0x3e12420c	0.14283007
40	0x3e20d69f	0.15706871
41	0x3db88d58	0.09011334
42	0x3da6baf7	0.081411295
43	0x3e1fb528	0.1559645
44	0x3db7d9ff	0.08977126
45	0x3c901b9e	0.017591294
46	0x3da7db27	0.08196097
47	0x3d8d7faa	0.069091156
48	0x3d9d8eb1	0.07693232
49	0x3dd40524	0.10352543
50	0x3de1d546	0.11027007
51	0x3da383ca	0.07984121
52	0x3db16622	0.086620584
53	0x3d84c430	0.06482732
54	0xbd59faca	-0.053217687
55	0x3c710c43	0.014712396
56	0xbca003b7	-0.019533021
57	0xbd4eab79	-0.050456498
58	0xbd20862e	-0.039190464
59	0xbbf9fbc3	-0.0076288893
60	0x3d0b345c	0.03398548
61	0xbcc25351	-0.023721369
62	0x3b8eff75	0.004363949
63	0x3dbac860	0.0912025
64	0x3d9ae49e	0.075631365
65	0x3dcd5a15	0.100269474
66	0x3d519323	0.05116571
67	0x3d6f2532	0.05838508
68	0x3dfac095	0.12243763
69	0x3decee03	0.11568835
70	0x3d5836f0	0.052786767
71	0x3e1d2918	0.15347707
72	0x3c433bfe	0.011916159
73	0x3ccc69b8	0.024952754
74	0x3de5db95	0.112235226
75	0x3d803236	0.06259577
76	0x3d59cd21	0.05317414
77	0x3de44dc1	0.11147643
78	0x3dd1983e	0.10234116
79	0x3e304951	0.17215468
80	0x3e20e5a4	0.15712601
81	0x3da75d0f	0.081720464
82	0x3cff58ca	0.031170268
83	0x3dc767ae	0.09736572
84	0x3e0a3af0	0.13499045
85	0x3e1f41db	0.15552466
86	0x3d96edda	0.07369585
87	0x3d9664ff	0.07343482
88	0x3dab920c	0.083774656
89	0x3de65450	0.1124655
90	0x3d9714c4	0.073770076
91	0x3d694f3d	0.056960333
92	0x3dd7396d	0.10509
93	0x3dd37953	0.10325875
94	0x3e05bf29	0.13061203
95	0x3dbcdc0b	0.09221657
96	0x3da9007f	0.08252048
97	0x3e01196a	0.12607351
98	0x3de7b7c7	0.113143496
99	0x3d20729d	0.039171804
100	0x3d9ce067	0.07659989
101	0x3cafa63e	0.021441575
102	0x3da27a41	0.07933474
103	0x3d519fec	0.051177904
104	0x3e0d69bd	0.13809867
105	0x3dbe92aa	0.09305318
106	0x3dadf651	0.08494247
107	0x3d8d2d9a	0.068934634
108	0xbcb739c0	-0.022366405
109	0x3ca12952	0.019673023
110	0xbcf2f214	-0.029656447
111	0xbd676dac	-0.056501076
112	0xbbda4848	-0.0066614486
113	0x3d0e1b35	0.034693915
114	0xbc2a0020	-0.010376006
115	0x3a30a300	0.0006738156
116	0xbd16fb42	-0.036860712
117	0x3d617181	0.055039886
118	0xbc977660	-0.018489063
119	0xbb5b65e0	-0.003347747
120	0xbc56b6f8	-0.013105147
121	0xbd07ad40	-0.03312421
122	0xbc833982	-0.016018633
123	0xbd077176	-0.03306719
124	0xbd42deee	-0.047575884
125	0x3d1f0673	0.03882451
126	0x3c3b5403	0.011433604
127	0x3d8457bb	0.06462046
128	0x3d815a8a	0.06316097
129	0x3df577f1	0.11985768
130	0x3dc36b2c	0.09541926
131	0x3de3ca94	0.11122623
132	0x3db69047	0.089142375
133	0x3d9ec00e	0.07751475
134	0x3dc052ad	0.09390769
135	0x3cddd33a	0.02707826
136	0x3d80ae7f	0.062832825
137	0x3ddbf145	0.10739378
138	0x3db73eab	0.089475
139	0x3ddab3bb	0.10678812
140	0x3db33c1d	0.087517
141	0x3e1d945b	0.15388624
142	0x3d3f7510	0.0467425
143	0x3e1472be	0.14496896
144	0xbd2f3e3a	-0.042783953
145	0xbd262424	-0.04056181
146	0x3d618fbd	0.05506872
147	0x3d3599d7	0.044336166
148	0x3d3e9e19	0.046537492
149	0x3d3d6161	0.046235446
150	0x3d34373d	0.04399799
151	0xbd4c2008	-0.049835235
152	0xbd61e5e2	-0.055150874
153	0xbd444744	-0.047919527
154	0xbc85e028	-0.016342238
155	0x3c86da56	0.016461533
156	0xbd12a9be	-0.03580641
157	0x3d2aae97	0.041670408
158	0xbc9fa0fc	-0.019485943
159	0xbd4921a0	-0.049104333
160	0x3cca2726	0.02467687
161	0x3c5027e4	0.012704823
162	0x3c908730	0.017642587
163	0x3dadeb67	0.08492165
164	0x3cb99b76	0.022657137
165	0x3dcd4153	0.10022225
166	0x3e29e90b	0.16592805
167	0x3e094848	0.1340648
168	0x3e2cb8da	0.1686739
169	0x3dc57646	0.096416995
170	0x3e19ab47	0.15006743
171	0x3da1b268	0.078953564
172	0x3dd6dd78	0.104914606
173	0x3dea474e	0.114393815
174	0x3dfbebc0	0.12300825
175	0x3dbe7e35	0.09301416
176	0x3d1d43bd	0.03839468
177	0x3dc97af6	0.09837906
178	0x3e04d37c	0.129713
179	0x3dc84802	0.097793594
180	0xbce3755b	-0.02776592
181	0xbd2f8520	-0.042851567
182	0x3d22f555	0.039784748
183	0xbc77ddc8	-0.01512856
184	0x3d5a36f2	0.053275056
185	0x3c3dc4d4	0.011582572
186	0xbd6d83e0	-0.057987094
187	0x3d2bad5b	0.04191337
188	0x3cce56f6	0.02518795
189	0xbb035220	-0.0020037964
190	0x3c10663c	0.008813437
191	0xbd032dcc	-0.032026097
192	0xbd3a9deb	-0.04556076
193	0x3cb3c512	0.021944556
194	0xbca4aa1c	-0.020100646
195	0x3d5ddb8d	0.054164458
196	0xbd48ad64	-0.048993483
197	0x3c7cbaa4	0.015425358
198	0x3ccd519a	0.025063325
199	0x3da9838d	0.082770444
200	0x3df307cf	0.11866724
201	0x3dc04c92	0.09389605
202	0x3dd80a7f	0.10548877
203	0x3d541e42	0.05178667
204	0x3dc96537	0.09833758
205	0x3e1e53c6	0.15461645
206	0x3d945c06	0.072441146
207	0x3c96d196	0.018410485
208	0x3d0ab21b	0.03386126
209	0x3d60290f	0.054726657
210	0xbc884236	-0.016633134
211	0x3d12d867	0.03585091
212	0xbd08f1a8	-0.033433586
213	0xbd268500	-0.040654182
214	0xbd316eeb	-0.04331867
215	0x3d16dad5	0.03682979
216	0xbd17c823	-0.0370561
217	0x3cdb8bf6	0.026800137
218	0x3c321ab4	0.010870624
219	0x3d43cbb5	0.047801692
220	0xbbde5550	-0.0067850724
221	0xbb80b248	-0.003927503
222	0x3ca3e486	0.02000643
223	0x3d6b88d5	0.05750354
224	0x3d3fb80d	0.046806384
225	0x3d512d86	0.051068805
226	0x3c91229a	0.017716695
227	0x3d401655	0.046896297
228	0x3e10e12a	0.14148393
229	0x3e184ff7	0.14874254
230	0x3e049e2b	0.12950961
231	0x3e0f0ba8	0.1396929
232	0x3d9bf7f3	0.07615652
233	0x3d5f6d3b	0.05454753
234	0x3d624df1	0.055250112
235	0x3c32752c	0.010892194
236	0x3c1bc65c	0.009507742
237	0x3c9d7aa6	0.019223522
238	0xbc94fcda	-0.018186975
239	0x3c9002b2	0.01757941
240	0xbd36b36c	-0.044604704
241	0x3cd2a14e	0.025711682
242	0xbd6251f3	-0.055253934
243	0xbce8c85e	-0.028415855
244	0x3da0d429	0.07852966
245	0x3d9b8056	0.075928375
246	0x3d3ec092	0.046570368
247	0x3df58612	0.119884625
248	0x3ddf4041	0.10900927
249	0x3d77c548	0.060490876
250	0x3e01650e	0.12636206
251	0x3d695bd1	0.05697233
252	0xbd0cd79c	-0.03438531
253	0xbcc33992	-0.023831163
254	0x3be76058	0.0070610456
255	0xbd48d429	-0.049030457

bias f4 [32]
0	0x3de836b5	0.113385595
1	0x3da67be3	0.08129098
2	0xbc4cb610	-0.012494579
3	0xbc67c4b4	-0.014146019
4	0xbd5d4b0f	-0.05402666
5	0x3e04b620	0.129601
6	0xbd872a59	-0.06599874
7	0x3dbb0748	0.09132248
8	0x3c95e4c7	0.018297566
9	0x3d19ea4f	0.03757697
10	0x3dae8290	0.085209966
11	0x3defccad	0.11708961
12	0x3e0df341	0.13862325
13	0x3dd14bb0	0.10219514
14	0x3e08557a	0.13313857
15	0xbd555682	-0.052084453
16	0x3d856e97	0.06515234
17	0xbce6f6aa	-0.02819379
18	0xbd3b8767	-0.045783427
19	0x3e11309d	0.14178701
20	0x3d347874	0.044060186
21	0x3dff5b5c	0.12468597
22	0x3db34159	0.087526985
23	0x3cefc7d3	0.029270088
24	0xbd16148e	-0.036640696
25	0x3d79a4f1	0.060948316
26	0x3d299f88	0.041411906
27	0x3deedc60	0.11663127
28	0x3dce2ed5	0.10067526
29	0xbd702de5	-0.05863752
30	0x3b906379	0.0044063893
31	0x3df53ace	0.11974107

weight f4 [10, 288]
0	0x3e1ada3c	0.15122312
1	0x3e4305a2	0.19045117
2	0x3d099c98	0.033596605
3	0x3cec4a61	0.02884406
4	0x3cdff10d	0.027336622
5	0xbd200990	-0.03907162
6	0x3e4d0e0a	0.20024887
7	0x3d0da759	0.034583423
8	0xbd6af93b	-0.05736659
9	0x3e34f6a9	0.17672218
10	0x3d35d1b9	0.04438946
11	0x3da6d20b	0.08145531
12	0x3d99df47	0.0751329
13	0x3de61358	0.11234158
14	0x3bc20113	0.005920538
15	0xbd96154d	-0.073282816
16	0xbcf2c327	-0.029634072
17	0xbd90801a	-0.070556834
18	0x3e04df2b	0.12975757
19	0xbd4283ea	-0.047489084
20	0x3d522eb2	0.051314063
21	0xbd92c796	-0.07166974
22	0xbd21686e	-0.039406233
23	0xbe0d65a2	-0.13808301
24	0x3d9b825e	0.07593225
25	0x3e0e9e7b	0.13927643
26	0x3d3ab3c0	0.04558158
27	0x3d196c60	0.03745687
28	0xbd77bc86	-0.060482524
29	0x3d18ec60	0.0373348
30	0xbd51d086	-0.051224254
31	0x3d95f9b4	0.07323018
32	0xbcf65fa4	-0.030074902
33	0xbdf4d61f	-0.11954903
34	0x3de4ae0a	0.11166008
35	0xbd77de5c	-0.060514793
36	0xbc7fbc9f	-0.015608936
37	0xbda18a9a	-0.07887764
38	0xbdb2cf52	-0.087309495
39	0x3cabc833	0.020969486
40	0x3d6ff829	0.058586273
41	0xbdb1df07	-0.08685117
42	0xbde0627c	-0.109562844
43	0xbb8ac1ef	-0.0042345445
44	0x3dca36db	0.09873744
45	0xbcce292c	-0.025166117
46	0x3e566ef8	0.20940769
47	0x3e26fa1e	0.1630635
48	0x3e00cd48	0.12578309
49	0x3dc63a3c	0.09679076
50	0x3e589c0a	0.21153274
51	0x3dce5003	0.10073855
52	0x3e5ff6ec	0.21871537
53	0xbb114eab	-0.0022172134
54	0x3dc26b3c	0.094931096
55	0xbded0878	-0.11573881
56	0xbcf356fb	-0.029704561
57	0x3d349df0	0.044095933
58	0xbdeaeaba	-0.11470552
59	0x3cccdda0	0.025008023
60	0xbca9b300	-0.020715237
61	0x3de839da	0.11339159
62	0x3d9fe768	0.07807809
63	0x3e4a9c30	0.19786143
64	0xbcc4982e	-0.023998346
65	0xbc75c48f	-0.0150004765
66	0x3d16ef19	0.036849115
67	0x3d9c9bac	0.076468796
68	0xbd93addc	-0.072108954
69	0x3d7c453c	0.061589465
70	0x3d7a7c10	0.06115347
71	0x3dff2ed0	0.12460101
72	0xbdb724cf	-0.089425676
73	0xbb8811c1	-0.004152507
74	0xbc000529	-0.00781373
75	0xbdccd6b8	-0.10001892
76	0xbe0c0698	-0.1367439
77	0x3dfba3b2	0.12287082
78	0xbd8b04b4	-0.067880064
79	0xbd0ca402	-0.034336098
80	0x3e43ab26	0.19108257
81	0x3d35802a	0.04431168
82	0x3e030689	0.12795462
83	0x3b49a16e	0.0030766386
84	0x3d14df3a	0.036345698
85	0x3d7f25c0	0.06229186
86	0x3be5fdf3	0.0070187985
87	0x3e30207b	0.1719989
88	0xbdb87107	-0.09005933
89	0xbdbc2650	-0.09186995
90	0x3cd59ac4	0.026074775
91	0x3da7c878	0.08192533
92	0x3d9827c4	0.0742946
93	0x3dbab3f5	0.09116355
94	0xbc42ac97	-0.011881969
95	0xbd5e1bdd	-0.05422579
96	0xbd032962	-0.032021888
97	0x3cea6e62	0.028617088
98	0xbd2e5b5e	-0.042567603
99	0xbd839927	-0.06425696
100	0x3dab4b21	0.08363939
101	0x3e126f5e	0.14300296
102	0xbcaf06c2	-0.021365527
103	0x3e358f82	0.17730525
104	0x3c845ac4	0.016156562
105	0xbd5b5d49	-0.05355576
106	0xbd1c0569	-0.038091097
107	0x3e42ed41	0.19035818
108	0x3da55731	0.08073271
109	0x3d670f23	0.05641092
110	0x3bbb45c2	0.005715103
111	0x3d1999ad	0.037500072
112	0x3e3c5db6	0.18395123
113	0x3dd86460	0.1056602
114	0xbcba23d3	-0.02272216
115	0xbbec859f	-0.0072180773
116	0x3e11f97f	0.14255331
117	0x3e3bab41	0.18327047
118	0xbd53bbf8	-0.051692933
119	0x3dcf57b0	0.10124147
120	0x3d3c41f0	0.04596132
121	0x3e0713c4	0.13191134
122	0x3dee817b	0.1164579
123	0xbc8a2619	-0.01686387
124	0x3e17c06c	0.14819497
125	0x3c9df7b2	0.01928315
126	0x3e2cb96e	0.16867611
127	0x3dda34ca	0.106546
128	0x3d957489	0.07297618
129	0x3dcfabec	0.10140213
130	0x3e2c8355	0.16846974
131	0x3e57e8b2	0.2108486
132	0xbd05d3ec	-0.032672808
133	0x3d9779a7	0.0739625
134	0x3e1bcec7	0.15215598
135	0xbd7ebeca	-0.06219367
136	0x3d1e7568	0.038686186
137	0xbdb40f5c	-0.08791992
138	0x3e018894	0.12649757
139	0xbda97d70	-0.082758784
140	0x3da6e11e	0.081484064
141	0xbc853b28	-0.01626356
142	0xbdc0dda9	-0.09417278
143	0xbd9f2dfe	-0.07772444
144	0x3d1cf7ae	0.038322143
145	0x3e057bdd	0.13035531
146	0x3de9071f	0.11378311
147	0x3d13ac0b	0.036052745
148	0x3e47aa77	0.19498621
149	0x3d45351f	0.048146363
150	0x3d60f5d9	0.05492196
151	0x3e13ea73	0.14444904
152	0x3e58765b	0.21138899
153	0xbc2f4a40	-0.010698855
154	0x3c91c8e8	0.017795995
155	0xbd49c312	-0.0492583
156	0x3bdbc680	0.0067070127
157	0x3d6a5884	0.05721332
158	0xbe05b93c	-0.13058943
159	0x3d937d3e	0.072016224
160	0x3db021d0	0.08600199
161	0x3cd48350	0.02594152
162	0xbd1bf8e6	-0.038079165
163	0x3d9ba4f6	0.07599823
164	0xbdfb2064	-0.122620374
165	0xbdac20e7	-0.08404713
166	0xbc59f5f0	-0.013303265
167	0x3df98bb6	0.12184851
168	0x3d3ade38	0.04562208
169	0x3dfcf396	0.12351148
170	0xbd9d6050	-0.07684386
171	0x3cef78df	0.02923244
172	0xbd8ccff3	-0.06875601
173	0x3b30cf67	0.002697909
174	0x3e390d51	0.18071486
175	0x3d50a4c6	0.05093839
176	0xbcc7fdbf	-0.024412988
177	0x3e5971b2	0.21234778
178	0x3e1b84b2	0.15187338
179	0x3d9fe5c9	0.078075
180	0xbd10959c	-0.03529893
181	0x3d3ce842	0.046119936
182	0xbc4e1dde	-0.012580363
183	0x3dd016c1	0.1016059
184	0xbdb6af5e	-0.089201674
185	0x3e168cae	0.14702103
186	0xbdfa2914	-0.12214866
187	0xbcfca465	-0.030840108
188	0x3dc91e18	0.09820193
189	0x3cd5dc10	0.02610591
190	0x3dad9c01	0.08477021
191	0x3e185e84	0.14879805
192	0x3d5234a4	0.051319733
193	0x3e12e97b	0.14346878
194	0x3e4c020f	0.1992266
195	0x3debf7ae	0.115218505
196	0x3cb1a43e	0.021684762
197	0xbbc376b9	-0.0059650806
198	0xbd27b847	-0.040947225
199	0x3e55b882	0.20871165
200	0x3d153f9e	0.036437623
201	0xbd8f5b4d	-0.06999836
202	0x3e451006	0.19244394
203	0xbc2092ab	-0.009800593
204	0xbdb53801	-0.088485725
205	0x3e17e4d6	0.14833388
206	0xbd8e1c76	-0.06939022
207	0x3bf4a9a0	0.00746651
208	0xbdcc1fc1	-0.09966994
209	0xbd50dba1	-0.050990704
210	0x3ce66667	0.028125001
211	0x3cc1a8fa	0.023640145
212	0xbac9c6b0	-0.0015394296
213	0xbd12d9ae	-0.035852127
214	0xbd9e17e1	-0.07719398
215	0xbcac4c69	-0.021032529
216	0x3deb72ab	0.114964806
217	0xbd886211	-0.0665933
218	0x3d80dbaa	0.062918976
219	0xbde51a72	-0.11186685
220	0xbd4c7e2c	-0.049925014
221	0x3e07c505	0.1325875
222	0xbdb3c30d	-0.08777437
223	0xbd8fc5d7	-0.07020157
224	0x3cc1f1a9	0.023674803
225	0x3d314d26	0.043286465
226	0x3e145513	0.14485578
227	0x3e2d9dc2	0.16954711
228	0x3e32ab05	0.17448051
229	0x3e0db14f	0.13837169
230	0x3de9fb46	0.1142488
231	0x3e1c1c6b	0.15245216
232	0x3dd02f0f	0.10165226
233	0x3e423370	0.18964934
234	0x3d7a5492	0.06111581
235	0x3d9387ae	0.07203613
236	0x3d99d4ba	0.075112775
237	0xbd5199a6	-0.05117192
238	0x3bc641b0	0.006050311
239	0x3d90be62	0.07067563
240	0x3e258db1	0.16167332
241	0x3d441a43	0.047876608
242	0x3e029e1c	0.12755626
243	0x3e60c392	0.21949604
244	0x3d9d55fd	0.076824166
245	0x3e589433	0.21150284
246	0x3dcfb5ff	0.10142135
247	0x3e6a31a3	0.22870497
248	0xbcc2760b	-0.023737928
249	0x3e55acf1	0.20866753
250	0x3e086347	0.13319121
251	0x3e40d324	0.18830544
252	0xbcffc9af	-0.0312241
253	0x3e212f88	0.15740788
254	0x3def13fa	0.11673732
255	0x3dae5201	0.08511735

bias f4 [10]
0	0x3db2561d	0.08707831
1	0x3d4fc7f1	0.05072779
2	0xbd279b32	-0.04091949
3	0x3cf09a2a	0.029370386
4	0xbd706356	-0.058688484
5	0x3d06638c	0.03280978
6	0x3c55b50a	0.013043651
7	0x3c7c73ca	0.015408466
8	0x3d4b0406	0.049564384
9	0x3d28dcff	0.041226383

weight f4 [6, 10]
0	0x3ec3aa85	0.38216034
1	0x3d015bab	0.031581562
2	0x3f1341f1	0.57522494
3	0x38c26dc1	9.271084e-05
4	0xbef85a5b	-0.48506436
5	0x3ed684da	0.41898233
6	0x3f18a2cf	0.59623426
7	0x3e85d175	0.26136366
8	0x3db2adc3	0.08724549
9	0x3ec0740c	0.37588537
10	0x3f171aad	0.5902508
11	0xbd7e6113	-0.062104296
12	0x3ed5f50a	0.41788512
13	0x3e41065a	0.18850079
14	0xbeb1e3c2	-0.34744078
15	0x3e9ba29e	0.30397505
16	0x3ea861ba	0.3288706
17	0xbeb96a10	-0.36213732
18	0x3f08b496	0.5340055
19	0xbe385f46	-0.18005094
20	0x3e89ba87	0.26900122
21	0x3e8f64d1	0.28006604
22	0x3da62668	0.08112794
23	0x3e650f03	0.22369008
24	0x3e21ea10	0.15811944
25	0xbef539cb	-0.47895655
26	0x3e3470dc	0.17621177
27	0xbf060374	-0.5234902
28	0xbf035dde	-0.51315105
29	0x3e616221	0.2201009
30	0xba4b11e5	-0.0007746502
31	0x3ed51bde	0.41622823
32	0x3f0f8dbf	0.5607566
33	0xbeae55ec	-0.34049928
34	0xbedb5324	-0.4283687
35	0xbe0c5634	-0.13704759
36	0xbe97371e	-0.2953424
37	0xbf1bcf25	-0.6086295
38	0xbcf127bc	-0.029437892
39	0x3f110770	0.56651974
40	0x3ed6b9b8	0.41938567
41	0x3e77b73b	0.2419099
42	0xbe6667ec	-0.2250058
43	0x3d1c44b0	0.038151443
44	0xbe05a518	-0.1305126
45	0xbf08e42c	-0.5347316
46	0xbea97c72	-0.33102757
47	0x3e6c53aa	0.2307879
48	0xbda28f51	-0.07937492
49	0x3d13c7ba	0.036079146
50	0xbd7e533e	-0.062091105
51	0x3e841299	0.2579544
52	0xbf1a67d4	-0.6031468
53	0x3eb49826	0.3527233
54	0xbe3aba0a	-0.18235031
55	0xbd6872b2	-0.056750007
56	0x3e1179f4	0.14206678
57	0x3ddf5a92	0.10905947
58	0x3f22456c	0.6338718
59	0xbe474801	-0.19461061

bias f4 [6]
0	0x3d029d4d	0.031888295
1	0x3d2d30cd	0.04228287
2	0xbe52d167	-0.20587693
3	0xbe36eaf2	-0.17863062
4	0xbd23b33a	-0.039965846
5	0x3eba26de	0.36357778
