models/2024-04-16T12-06-16-027871_SAC_MinAtar_SpaceInvaders/critic_target_2.pt (torch, 90212 bytes, 8 tensors)

weight f4 [32, 24, 3, 3]
00000000: 441b f53c d075 1f3c aa48 68bd 546d 863d
00000010: b644 37bd bc61 1abd 9eb8 2cbd 00e5 77ba
00000020: 3e96 443d 48e6 963c f5a2 5fbd d4a9 033d
00000030: 8860 74bd badf dabc 0c0e aa3c 805b 0b3d
00000040: c88e 7a3d b01c c23c 54e8 143d a42d 41bd
00000050: 5407 59bc fc8a 9b3c ec50 68bd 680d 113d
00000060: 5069 f6bb c00c 313c cc57 363d 083f 2cbc
00000070: 72e1 313d 0037 e439 6a2b 4dbd c076 c43a
00000080: 64f8 53bd ea69 43bd 50a4 563c aa10 53bd
00000090: be32 103d 4c11 65bc cc28 0e3d a6f2 1f3d
000000a0: 9cef 87bd 50d7 793c b60d 4fbd 7498 0a3d
000000b0: d847 043c 0802 cf3c 50da 27bc 4efc 093d
000000c0: 0ec7 2b3d d0b9 663c 9d2d 03bd 370b a5bb
000000d0: 10fc 89bc 4066 ec3a 959c 863d 503f bb3b
000000e0: b1b9 82bd b628 abbc 0000 bf35 a840 5a3d
000000f0: c0d5 57bc 58bc 6ebc da2e dc3c 7061 9d3c
00000100: 637d 2fbd e71c 14bd 9ef6 52bd cc5c fb3c
00000110: b624 533d f95b 1fbd c043 b0ba 207d 7b3b
00000120: 2e1e b7bc e097 343d 4cc2 613d c297 a8bc
00000130: a5aa 7abd 9cd4 e53c 544d c5bc 8431 c5bc
00000140: 80f1 353a 0811 77bc 1d83 7abd 0a81 853d
00000150: a74f 2abd 7e6a 81bc cc13 71bd ac86 003d
00000160: 807f 7ebc 84ee 3f3d 9c8d 72bc a04e 6d3d
00000170: 18fe 2d3d 6c7c 8b3c c0c3 49bb 3897 c13c
00000180: 01ff 30bd 40fc 083c bc7a 43bd a41f 893c
00000190: 9de3 16bd 800f 3bbd c277 373d 7156 80bd
000001a0: 3f61 43bd 3cde 66bd 4412 c03c c896 52bd
000001b0: 5ebd 5fbd 19ac 1dbd 6a79 1abd 549f 78bd
000001c0: 78fe 703d 4180 07bd a0ff dbbc f6d0 463d
000001d0: eaee 53bd 0030 b9b9 7ab3 31bd e066 ac3c
000001e0: da0e 63bd 1533 89bd ae7c 433d 68d8 7e3d
000001f0: 8b76 6ebd fcea 4bbd 6097 2c3b be03 80bd
00000200: e4e7 1dbd c8f7 833d 4416 0c3d 63ae e33c
00000210: 49cd 38bd aac8 5e3d 3899 1fbc c07f 023d
00000220: 1489 76bc c893 f3bc e6ce 38bd a888 f33c
00000230: 0caf b53c 30cb 343d 20e2 29bd 886e 80bc
00000240: e82d 3c3d c6cd 3e3d 0085 72bc 7111 01bd
00000250: e023 023d 40b8 7cbb 161e 373d fae9 613d
00000260: 40a3 33bd f6a6 0c3d 2014 7ebc 30bf 3c3d
00000270: 2b8b e9bb 79cc 7abd 1044 413d 2873 883d
00000280: eb9f 11bd 187f 1b3d be0e 193d a655 353d
00000290: 109d c93c 33b7 22bd 18d4 35bd 50b9 913c
000002a0: 089b 8b3c e0cd c1bc bfd3 1ebd b2e6 3abd
000002b0: 8027 c93a 7254 193d 40ce 3ebb 1ab8 d3bc
000002c0: cd7d 1bbd 5ca2 793d 303a 1cbd 18bf 65bd
000002d0: c0cc 59bb b840 d6bb 3053 c73c 885d 4bbc
000002e0: 5b61 7bbd ced7 75bd 4cd5 813d a83c 313d
000002f0: 7ba8 76bd d3f3 6c3d 34ba 743d 2605 393d
00000300: 24ae 3e3d 5aff 4cbd 7027 a63c 0008 8b39
00000310: 406e 913b 4b83 2ebd 40e9 bb3b ee6e 433d
00000320: e6b7 3a3d f2bc 63bd 506f 8ebb 5aaa 303d
00000330: fc54 343d a2e6 49bd 5cc9 49bc 798f 40bd
00000340: cc57 1fbd 004d ee3c 88f8 103c 80bf 1c3a
00000350: ec42 5f3d a017 b03b 605e ae3c 50ac 263c
00000360: 0ccf 723d 8af4 c2bc d03e 1b3d 408a 813d
00000370: ee9c 353d 5318 e93c 2167 3cbd 68fb ac3c
00000380: 9d93 59bc e38b a53d 62a1 0e3e 8a80 123c
00000390: 140f 4c3e 76ca b13d d2dd 353d 66dd 753d
000003a0: fb6c d93d 2c02 093d 6e28 653e 8193 503e
000003b0: 9ce9 603e 2a26 3a3e 0eb3 403e 0fbf 923e
000003c0: b846 433e 1f4a 723e 9c57 193e d643 5dbd
000003d0: e102 d13c 7a4e 5abd 7ce6 853c 23ec efbc
000003e0: 3e03 c1bd 08f5 39bd ebce 67bc 778a 04be
000003f0: b9f2 6fbd 0046 19bd 576f 67bc d64f ef3c
0.029920228 0.0097326785 -0.056709923 0.065638214 -0.044743262 -0.037690863 -0.042168252 -0.0009456426
0.047994845 0.018420354 -0.054598767 0.032144383 -0.059662372 -0.02671801 0.020758651 0.034022808
0.061171323 0.02369532 0.036354378 -0.047162667 -0.013246376 0.018987171 -0.056717798 0.035413176
-0.0075198784 0.0108062625 0.044517323 -0.010513075 0.043427892 0.00043528527 -0.05009023 0.0014989004
-0.051750556 -0.04770843 0.013100699 -0.051529564 0.03520464 -0.013981175 0.034706876 0.039049767
-0.06637499 0.015249088 -0.050550185 0.033836797 0.0080737695 0.025269523 -0.010244921 0.033687882
0.04193788 0.014082387 -0.032025922 -0.0050367373 -0.016843826 0.0018035844 0.065728344 0.0057143345
-0.06383074 -0.020893436 1.4230609e-06 0.053284317 -0.013173521 -0.014571272 0.02687781 0.0192115
-0.042844187 -0.036160376 -0.051504724 0.030683897 0.051548682 -0.03890607 -0.0013447925 0.003837414
-0.022353258 0.04409015 0.055116937 -0.020580176 -0.061197896 0.028055482 -0.024084724 -0.024071462
0.00069405884 -0.015079744 -0.061160196 0.06518753 -0.04157987 -0.01579785 -0.05885677 0.031378433
-0.015533328 0.046858326 -0.01480427 0.05793631 0.04247865 0.017027102 -0.0030786842 0.023631677
-0.04321194 0.008360922 -0.04772447 0.01673872 -0.036838163 -0.04566908 0.044791944 -0.062664874
-0.047700163 -0.056364283 0.02344621 -0.051413327 -0.054623954 -0.038494203 -0.037713446 -0.060698822
0.05883643 -0.033081297 -0.02685529 0.048539124 -0.051741518 -0.00035321712 -0.043384053 0.021045148
-0.055434085 -0.06699196 0.047726326 0.0622181 -0.05821852 -0.049784645 0.0026335344 -0.06250714
-0.038551226 0.06443745 0.03420092 0.027793115 -0.04511765 0.054390587 -0.00974112 0.031860113
-0.01504733 -0.029733554 -0.04511919 0.029728249 0.022178195 0.044139087 -0.041475415 -0.015677705
0.045942217 0.04658296 -0.0148022175 -0.031510774 0.031772494 -0.003856197 0.044706427 0.055154778
-0.04385686 0.034338914 -0.015507728 0.046080768 -0.007127186 -0.061230157 0.04718405 0.06662589
-0.0355529 0.037963003 0.037367575 0.044271134 0.024611026 -0.039725494 -0.04439172 0.01778856
0.017041698 -0.02365774 -0.038776156 -0.045630164 0.0015346855 0.03743405 -0.0029114634 -0.025844622
-0.03796177 0.060945854 -0.03814143 -0.056090444 -0.0033233613 -0.006538477 0.02433166 -0.012412436
-0.061372142 -0.06002026 0.06339511 0.043270737 -0.06021927 0.057849716 0.05974789 0.045170926
0.046552792 -0.05004821 0.020282477 0.00026518106 0.0044381917 -0.04260568 0.0057345927 0.047713213
0.045585535 -0.055600114 -0.0043467656 0.04313121 0.04402636 -0.049292214 -0.012316074 -0.047011826
-0.03890209 0.02908945 0.008848317 0.00059794635 0.05450718 0.00537391 0.021285236 0.010172918
0.059279487 -0.023798246 0.0379017 0.06325197 0.044339113 0.028453982 -0.04599679 0.021115974
-0.013279823 0.08083322 0.1392875 0.008941779 0.19927627 0.086811945 0.044400997 0.060025595
0.106164895 0.033449337 0.22378704 0.20368768 0.21964115 0.18178621 0.18818304 0.2866139
0.19069946 0.23661087 0.14974827 -0.05401977 0.025514068 -0.053297497 0.016345255 -0.029287403
-0.094244465 -0.045399696 -0.014148454 -0.12943445 -0.058581088 -0.037420273 -0.014125667 0.029212873

bias f4 [32]
00000000: 18fb 3bbd 2368 613e da90 3b3e cebf 4f3e
00000010: 9e0f e9bc 66bb 443e 5e44 92bc 827b 16bd
00000020: fba3 4e3e d485 91bc d0f0 dcbc a068 57bd
00000030: c57c 37bd aa8b 423e 8e96 353e 36ae a3bc
00000040: 3d21 87bd 009b 4e3e 5c72 59bd 48d7 84bd
00000050: 9553 543e 2f13 503e e33b 5c3e 7227 333e
00000060: 427d 8abd 95e7 573e 3d8a 7ebd 78d5 18bd
00000070: 8cb9 b3bc 8e27 4b3e dd90 4a3e 69bc 303e
-0.04589376 0.22012381 0.18316975 0.20288011 -0.02844983 0.19212112 -0.017854866 -0.03673888
0.20179741 -0.01776401 -0.026970297 -0.052590013 -0.044796724 0.1899859 0.17733213 -0.019980531
-0.065981366 0.20176315 -0.053087577 -0.06486374 0.20735009 0.20319818 0.2150722 0.17495516
-0.06762172 0.21084435 -0.062143553 -0.037312955 -0.021939062 0.19839308 0.19781823 0.17259373

weight f4 [32, 32, 3, 3]
00000000: 3869 ddbb 042e bfbc a0a6 3dbc 6c21 3ebd
00000010: 349e 29bd 1ef2 ec3c 7a0c c43c 722b eb3c
00000020: a085 e7bb 00be 78bc 80f0 f1bb 1e09 57bd
00000030: ab26 053d a99c 013d a4cb 373c b97c 393d
00000040: 3427 0e3c 3802 8dbb 7beb 4c3d ece0 18bc
00000050: 3e36 69bd ac4c 653c b44f 42bd 9ee2 a23c
00000060: c043 49bd 40ab c8bc d25a ea3c ce90 58bd
00000070: 25cb 4f3d b281 593d 0269 f5bc d1a8 643d
00000080: 4a4b e13c add8 3f3d a550 1bbd b664 8dbc
00000090: d8b4 18bc ea4e d93c 8447 7cbc ce03 64bd
000000a0: bd19 283d 24af 373c 73ab 48bd 703f b5bc
000000b0: 2ceb 7e3c ed53 323d 8080 47ba bc9c 25bc
000000c0: 8d1f 56bd cafb ddbc b0b7 96bb 33c2 21bd
000000d0: 2c94 35bc 2c5d 233c e0c8 dc3a cf84 a73c
000000e0: aa7a a03c 020d 05bd b292 813c 4644 df3c
000000f0: 1c75 4c3c 91f8 4dbd aaaa b03c d694 da3c
00000100: 6265 8dbc aff5 683d 260d 9e3c 8fb7 0c3d
00000110: 0b0a 613d 74d0 16bd 1128 3abd 842f 5c3c
00000120: 3e4d b7bc bde5 043d 0ecb d1bc e4f2 36bc
00000130: 5874 8ebc 03c6 5bbd 9cdc f03c b2c9 c6bc
00000140: 9232 e5bc f8e9 38bc 646b 07bd 1a26 15bd
00000150: b865 853b a0b2 d9bb 5099 d6bb 7abd c03c
00000160: 9938 5ebd 0021 1fba 71ad 55bd 6ee5 e0bc
00000170: 321f 5fbd 43a4 083d 7d81 023d e0f2 58bb
00000180: faff db3b 49c3 37bd aebe ea3c 95f5 5a3d
00000190: 4e8a 0fbd efff 563d 3c53 4b3c b950 623d
000001a0: c0ca 4d3a b480 2dbc a639 03bd 30a7 513b
000001b0: 7768 423d ce88 b9bc 1a59 e93c eadb c03c
000001c0: 562f 853c 00e8 6cba a414 2abd 5f91 08bd
000001d0: 243d 30bd e03c 39bc 8339 663d 95dc 273d
000001e0: 5744 6abd 92c5 ec3c 36d1 43bd 23ab ef3c
000001f0: 8a5f 4abd a049 5c3b c56e 423d 2586 0a3d
00000200: 162d babc a8a3 80bc c025 52bb cee0 17bd
00000210: 278a 083d ab14 073d 5049 6ebd e891 c53b
00000220: d57d 633d a15b 4a3d 1534 283d eee0 923c
00000230: 1cef c6bc 3c20 243c 5c1a 153c 0358 463d
00000240: 4573 4bbd e28a 03bd 80ea 55ba c473 2dbd
00000250: 16d2 86bc 0ac5 843c 7c33 093c 20b5 caba
00000260: 2479 673c dd76 673d 0887 36bc 8073 d3bb
00000270: 7cb5 eabc 08dc a8bb 4092 2bba ecae c4bc
00000280: 6477 2e3c a03f 01bc 009d 07bc 116c 1d3d
00000290: 00d3 63ba c80e f13b 9c3c 39bc 5406 31bc
000002a0: bdca 113d d716 2e3d 9e82 07bd 9c61 783c
000002b0: 92ee bfbc d008 b6bb 935e 46bd 2e3d fbbc
000002c0: 4484 a2bc 66a2 d0bc 5145 653d 3c7f 7f3c
000002d0: 20f6 74bc cd5c 483d a79d 45bd b212 8f3c
000002e0: 6381 093d d4c1 7b3c 0819 a8bb d46d 5abd
000002f0: ca4d 30bd bda7 5c3d 3468 b9bc 3166 273d
00000300: c8f0 c0bc 42e1 a0bc 870c 6b3d 50aa 463b
00000310: ee7b f03c ab9b 603c 77a8 3ebd 4805 e53b
00000320: 60f2 90bb 0109 283d 6b76 0bbd e6a9 a93c
00000330: f184 37bd 715c 5c3d 10f1 e5bc 1cf5 64bc
00000340: 1ee7 50bd 1372 183d 8c81 91bc 8311 3e3d
00000350: 34c4 123c 2f43 a7bc 574e 323d a573 383d
00000360: f864 25bc 7062 193b 00ad 2fba a77c 52bd
00000370: 2007 01bd 0865 e0bc 6a81 cfbc 3053 c9bb
00000380: b2ac 26bd f606 88bc 0c58 a7bc 3c8f 1dbd
00000390: ac66 4e3c 4627 4cbd 02d1 a7bc b259 48bd
000003a0: 32ab ccbc f6b1 983c a4b0 02bc 009a 883a
000003b0: 46db a5bc 4ba3 3b3d d642 62bd a02f c8ba
000003c0: 9668 03bd 4218 973c a7b1 a23c 9062 59bd
000003d0: f8ac 933b 1c76 ddbc fbdb 6c3d 4cb0 68bc
000003e0: f046 9bbc 5210 a63c a9f4 13bd 73b8 0dbd
000003f0: 6ff8 a7bc e039 a8bb 8852 843b 5424 25bd
-0.006756928 -0.023337372 -0.011575371 -0.046418592 -0.04141064 0.028924044 0.02393173 0.02870724
-0.00706549 -0.015182018 -0.007383406 -0.05249893 0.03250758 0.031643543 0.011217985 0.04528496
0.008676339 -0.004303243 0.05002926 -0.009330969 -0.056936495 0.013995331 -0.047439292 0.01988345
-0.049136877 -0.02449572 0.02860776 -0.05287247 0.050730843 0.053102203 -0.029957298 0.05582506
0.027501721 0.046837498 -0.037918705 -0.017259937 -0.00932046 0.026526887 -0.01539791 -0.05566769
0.04104017 0.01121119 -0.04899163 -0.022124976 0.015558999 0.04353707 -0.00076103956 -0.010108169
-0.052276183 -0.027097601 -0.004599534 -0.039491843 -0.01108269 0.009970944 0.0016844533 0.02044907
0.01958974 -0.03248311 0.01581702 0.027254235 0.012479093 -0.05028588 0.021565754 0.026682299
-0.017260257 0.056874927 0.019293379 0.034354743 0.05494122 -0.03681989 -0.045448367 0.013439063
-0.0223757 0.032445658 -0.02560952 -0.011166308 -0.017389461 -0.053655636 0.02940207 -0.024266098
-0.027978215 -0.011286251 -0.0330614 -0.03641329 0.0040709637 -0.006643608 -0.006549038 0.02352785
-0.054253194 -0.0006070286 -0.05216736 -0.02745315 -0.05447311 0.033359777 0.03186177 -0.003310375
0.0067138644 -0.044863973 0.028655376 0.05345686 -0.035044007 0.05249017 0.012409981 0.055252764
0.00078503415 -0.010589767 -0.0320374 0.003199052 0.047462907 -0.022648241 0.02848487 0.023542363
0.016257923 -0.0009037256 -0.04152359 -0.03334176 -0.04302706 -0.011306018 0.05620719 0.040981848
-0.05719408 0.028902803 -0.04780694 0.029256409 -0.04940752 0.003361322 0.04746892 0.033819336
-0.022726577 -0.015703037 -0.0032065958 -0.037079625 0.033334877 0.032978695 -0.058175385 0.0060293563
0.055539925 0.04940379 0.041065294 0.01792952 -0.024283938 0.010017451 0.009100523 0.04842378
-0.049670476 -0.03211487 -0.00081602484 -0.04234673 -0.016457599 0.016207237 0.008374091 -0.0015465356
0.014128003 0.05650984 -0.011140592 -0.0064529777 -0.028650992 -0.005153183 -0.0006544925 -0.02400919
0.010648582 -0.007888705 -0.008277178 0.03843314 -0.0008690804 0.0073564984 -0.011305954 -0.010804731
0.035593737 0.04250225 -0.03308355 0.015159991 -0.023429189 -0.0055552498 -0.048430037 -0.030668821
-0.01983846 -0.025468063 0.05597431 0.0155943 -0.014951259 0.048916627 -0.048246052 0.01746497
0.03357066 0.015366036 -0.005129937 -0.053327397 -0.043042935 0.053870905 -0.022632696 0.04086894
-0.023552313 -0.019638661 0.057384994 0.0030313917 0.02935597 0.013708989 -0.04654738 0.006989155
-0.0044234246 0.04102421 -0.03404848 0.020710897 -0.044804517 0.053799096 -0.02806905 -0.013974454
-0.05100166 0.037218165 -0.017761968 0.04640342 0.008957911 -0.020417778 0.043531742 0.045032162
-0.010094874 0.002340462 -0.0006701499 -0.05138841 -0.031500936 -0.027391925 -0.025330264 -0.00614395
-0.04069204 -0.016604882 -0.020427726 -0.038466677 0.012597721 -0.04984214 -0.020485405 -0.048913665
-0.024983976 0.018639546 -0.007976685 0.0010421872 -0.02024616 0.045810025 -0.05523952 -0.0015272982
-0.032082163 0.018444184 0.019860102 -0.053072512 0.0045067035 -0.027033858 0.057826977 -0.014202189
-0.018954724 0.020271454 -0.036121998 -0.034599733 -0.020504205 -0.0051338524 0.004038159 -0.04031785

bias f4 [32]
00000000: 9d9e 3fbd 8d4c 003e 5237 ce3d 7264 e13d
00000010: d2ce c73d a479 1bbd ce5c 17bd a775 66bd
00000020: 269e 1fbd 6200 c63d abc5 633d 65c2 f2bc
00000030: e029 813d d3a6 64bd 16f9 9abc e691 013e
00000040: b247 57bd 07c1 6abd a688 18bd f8a2 193e
00000050: 6dd9 9e3d 3cd9 0f3e 7b96 e93d 48f8 cf3a
00000060: a7ce 0d3e 5289 f23d 3e57 293e a01f 99bb
00000070: 78b4 2d3e 2cf8 f4bc 5f65 b3bc 7e59 323e
-0.046782125 0.12529202 0.10069145 0.110054865 0.09756245 -0.037957802 -0.03695374 -0.056264546
-0.03896918 0.09668042 0.055608433 -0.02963371 0.06306815 -0.05582316 -0.018917602 0.12653312
-0.05255861 -0.05731299 -0.037239693 0.15003574 0.077563144 0.14047712 0.11405655 0.001586684
0.13848363 0.11842598 0.16537187 -0.0046729594 0.16963375 -0.029903494 -0.021898923 0.17416951

weight f4 [10, 288]
00000000: 0533 033e 8021 083c ac04 eabd 186c 3d3d
00000010: 24dc a4bd 5576 003e 2480 e0bc 2c6e c73d
00000020: 2240 dcbd 9e4d c73d 1277 d3bd 2cbd 2d3d
00000030: 38f5 cd3d 88c2 bc3c f811 923c be44 e33d
00000040: 7097 a93d 8b8d d5bd de69 87bd dc1f 02be
00000050: bc74 c43d 9ee7 d53d 08b9 503d 8002 a53a
00000060: 886b 2d3d c044 4d3c fd3c cbbd 5c6c 523d
00000070: 2c85 85bd 38de dd3c d342 0a3e b6e2 08be
00000080: 70d8 d73c 8ac5 c33d b82b 1bbd 9c42 163d
00000090: 8cfd 2c3d 9e2f efbd 43e6 ddbd 22f4 a4bd
000000a0: 7ede e0bd ba4b cebd 93f6 083e e874 d3bd
000000b0: c47e 053d d455 473d 74e8 633d 0009 073b
000000c0: e371 013e 5582 0c3e 207d 163d 1c56 a93d
000000d0: ea36 ddbd e4fd 923d 3c63 933d c55d 07be
000000e0: 7c03 c1bd c493 edbd 60ae 87bc 18d3 d33c
000000f0: f0e0 d23c 3a88 ca3d 00ec 8cbb 478f 033e
00000100: 82e3 b3bd 7e51 d43d d8d6 fa3c 402f 9c3c
00000110: 0857 893d 2038 423c 62dd d33d ec57 aabd
00000120: 43cf 023e 17b2 053e 00dd b0bd 3c25 633d
00000130: 088d 23bd a0f5 de3c e03d ccbd 7e85 b8bd
00000140: f0f2 06bc 6050 133c 1895 d33c bcd7 013d
00000150: bf8c f1bd 39bc dbbd ad30 093e 789c 373d
00000160: 50e8 be3d 000b c9bc 23bd 81bd c8f4 ed3c
00000170: 82eb af3d 8062 3abd 44d9 0fbe a045 a33d
00000180: 0763 073e 6044 31bc e2e7 ed3d 50ce 713c
00000190: a0cd 163c 786c bf3d e020 13bd 88f1 833c
000001a0: a0e2 c9bb 3e3c f73d fabe d13d b87a 023d
000001b0: f413 ab3d ec05 7abd 8d95 dfbd 9ed4 2ebd
000001c0: b5d2 0abd 727c 09bd 804f da3d 6974 80bd
000001d0: a128 403d 066f b63d dc38 463d b241 67bd
000001e0: c08e 153d 58c4 9f3c 7026 903d 16ea e03d
000001f0: d8b6 833c 32c4 e5bd 4013 213c f065 33bd
00000200: bc14 ba3d f8b8 09bd 449e 3d3d 9c1a db3d
00000210: a07c 0f3d d8fc 9bbc 202e 503d 3889 983d
00000220: bcd0 ff3c e6df d2bd 3008 c53d 0070 61bc
00000230: 4fe8 95bd 683d f63c 10c1 30bd b1ce fbbd
00000240: d843 c43d da65 fdbd 6e8e 8dbd eea8 cc3d
00000250: a4d8 05bd 8011 8a3a e0be f5bd c00d 3c3d
00000260: 5c77 b0bc bca3 0e3d c04d aa3d 7e40 fd3d
00000270: 2baa a7bd 30ab 6e3c a43f cdbd d391 efbd
00000280: 6cef d1bc d453 5d3d 80d5 b33a e055 6bbc
00000290: 5431 3d3d 8ba1 083e b01b 1dbc f91e 0c3e
000002a0: 60f9 6f3d e82a cabc 08ec 13bd 3862 a7bd
000002b0: 7a16 0cbe a638 10be 224f 4cbd 2f6d e4bd
000002c0: 99eb d6bd 75aa 073e c6e6 c2bd 8470 f23c
000002d0: e3db 073e badc 22bd 1aab 41bd 5928 02be
000002e0: 00e4 6cba fd5c 0bbe 00b2 18bc e639 a3bd
000002f0: 7e2b 06bd ee22 da3d 35ca 013e afad 01be
00000300: f9d3 10be 3677 09be b04d ffbd a887 ab3d
00000310: 8654 bc3d 5c82 d3bd 20a2 e73c 6aa7 df3d
00000320: a4ee 41bd 1c70 363d 0bc9 0e3e 401a ce3c
00000330: 983a 00be 19a8 4dbd 4484 cb3d 92dc a3bd
00000340: 902e 66bc a4af cfbc b692 f93d 30c3 a33d
00000350: 8e20 74bd f48c f2bd 1149 08be 5004 a63c
00000360: 806c e8bb da6a 33bd 5025 2b3c ce75 4ebd
00000370: f651 f63d 381c 06be 572f 093e 80a9 893c
00000380: 6f7d a5bd 02e7 d8bc 5841 2f3d 5218 803d
00000390: 6293 db3d 8cd0 0ebe 9c07 0bbd d056 67bc
000003a0: f22f 53bd c01e 2e3b e60f 7bbd fccb b33d
000003b0: 40c2 d4bb c623 c9bd 9633 9a3d 7a5b fe3d
000003c0: 58e4 903c a847 983d 18b5 d43c f8d0 fa3c
000003d0: dddb 0dbe e245 f7bd ea57 b7bd 7e40 edbd
000003e0: 3ea4 c13d 58d1 803c 685e d53d 61b6 103e
000003f0: 4c41 a23d 005e 4bbb 00dc 543d eeb3 e63d
0.12812431 0.008308768 -0.11426672 0.046245664 -0.08049801 0.1254514 -0.027404852 0.097378105
-0.1075442 0.09731601 -0.10325445 0.042416736 0.100565374 0.023041978 0.017830834 0.11097096
0.082808375 -0.10427388 -0.066119894 -0.12707466 0.09592578 0.10444568 0.05095771 0.0012589246
0.042338878 0.012528598 -0.09923742 0.05137287 -0.06519541 0.027083501 0.13502054 -0.13367733
0.026348323 0.09559162 -0.03788349 0.036684617 0.04223399 -0.11679004 -0.108349346 -0.08054377
-0.10979937 -0.100730374 0.1337531 -0.103250325 0.032591596 0.048665836 0.055641606 0.002060473
0.126411 0.13721593 0.036740422 0.08268377 -0.1080149 0.07177332 0.07196662 -0.13219364
-0.09424493 -0.1160045 -0.01656264 0.025857493 0.025742024 0.098892644 -0.0043005943 0.12847625
-0.08783628 0.10367106 0.030620024 0.0190655 0.06706053 0.011854202 0.1034496 -0.08317551
0.12774377 0.13056217 -0.086359024 0.05545543 -0.03992942 0.027216733 -0.09972739 -0.090098366
-0.008236632 0.008991331 0.02582793 0.03169988 -0.11794423 -0.1072926 0.13397475 0.044826955
0.09321654 -0.024541378 -0.06334903 0.029047385 0.085898414 -0.045504093 -0.14047724 0.07972264
0.1322137 -0.0108195245 0.11616494 0.014758661 0.009204298 0.09346861 -0.035920024 0.016106382
-0.006161049 0.12072037 0.10241504 0.031855315 0.08353415 -0.061040804 -0.109171964 -0.042683236
-0.033892352 -0.033565946 0.10659695 -0.062722035 0.046913747 0.08907895 0.04839407 -0.056459136
0.03651309 0.019502804 0.07038581 0.10982148 0.016078398 -0.11219062 0.00983125 -0.043798387
0.09085986 -0.033623666 0.046293512 0.10698435 0.03503096 -0.019041464 0.05082524 0.074480474
0.031227462 -0.102966115 0.09620702 -0.013759613 -0.073197 0.030058578 -0.04315287 -0.12295283
0.09583253 -0.12372942 -0.06911932 0.09993158 -0.032677308 0.001053378 -0.11999297 0.04591155
-0.02154129 0.034824118 0.08315611 0.123658165 -0.08186754 0.0145671815 -0.10021904 -0.11697736
-0.02562686 0.054035023 0.0013720244 -0.014363736 0.04618962 0.13342874 -0.009589121 0.1368369
0.058587432 -0.024678662 -0.03611377 -0.081730306 -0.13680449 -0.1408411 -0.049880154 -0.111536376
-0.104941554 0.13248618 -0.09516673 0.029594667 0.13267474 -0.039761283 -0.047282316 -0.12710704
-0.000903666 -0.13609691 -0.009319782 -0.079700276 -0.03275632 0.106511936 0.12674792 -0.12663911
-0.14143361 -0.13424382 -0.124659896 0.08375484 0.09195809 -0.103275985 0.02827555 0.109206036
-0.047346726 0.04454051 0.1394388 0.025159001 -0.12522352 -0.05020914 0.09937337 -0.08001055
-0.014049187 -0.025352307 0.12186186 0.079962134 -0.05960136 -0.11843291 -0.13309123 0.020265728
-0.0070930123 -0.043803073 0.010445908 -0.050405316 0.120273516 -0.13096702 0.13396965 0.016804457
-0.08080565 -0.02647734 0.042786926 0.06254639 0.107214704 -0.13946742 -0.033942804 -0.014119819
-0.051559396 0.0026568621 -0.06129446 0.08779141 -0.006492883 -0.09821276 0.075293705 0.124197915
0.017687008 0.07435542 0.025965258 0.030617222 -0.13853402 -0.12073876 -0.08952315 -0.115845665
0.09455155 0.015724823 0.10418397 0.14132072 0.07922611 -0.003103137 0.05196762 0.112647876

bias f4 [10]
00000000: bc24 07bd 292c 4bbd a647 e33c f34e 813d
00000010: d758 4abd dafd 50bd 852b 3c3d 4016 b63d
00000020: 7e7c 5abd 612e 9a3c
-0.032994017 -0.04960266 0.027744126 0.063138865 -0.04940113 -0.05102334 0.04593994 0.088909626
-0.05334138 0.018820943

weight f4 [6, 10]
00000000: 862b e43e 0a33 5a3e d8bf e83d d72d 26be
00000010: f957 18bf f1f8 063e 5c7e 023f c0b1 5ebe
00000020: a671 d23e 4bb1 303f 02af 65be eccf 02bf
00000030: 9004 c13e ed18 e13e cc8b d3be 26ed 00bf
00000040: e64e 013f 37b6 af3d 6272 9ebe 4114 d6be
00000050: eb19 093f e0f9 ccbe 1d25 a6be e898 793e
00000060: 709e 29bd 1a12 93be 5803 01be 03e8 1bbd
00000070: e847 0ebf 9c76 063f 8405 093e 9db1 8c3e
00000080: 1043 863d 718d 6f3d d637 a13e 2c16 123f
00000090: 392f babd 0279 413f 2012 e63d 194f f83e
000000a0: 5284 62be 8c68 01bf e08f 8c3c 6d0a 623e
000000b0: 39eb a3be 0c87 973d aa5e fa3d 86c2 043f
000000c0: c077 2e3c c80d ed3d 8457 cabe 6ccf 80be
000000d0: 0c4e 213e dfa2 023f f645 27be 727e 15be
000000e0: 78dd 8d3e e195 d1bd 8fd6 29be fe06 6dbe
0.44564456 0.21308532 0.11364716 -0.16228424 -0.59509236 0.13180901 0.5097406 -0.21747494
0.41102332 0.6902053 -0.22430041 -0.51098514 0.37698793 0.4396433 -0.41317594 -0.5036186
0.50511014 0.085796766 -0.30946642 -0.41812328 0.5355517 -0.4003439 -0.3245019 0.24374735
-0.041410863 -0.28724748 -0.12598932 -0.03806306 -0.5557847 0.52524734 0.1338101 0.27479258
0.0655576 0.0584845 0.31487912 0.5706508 -0.09091038 0.7557527 0.11233926 0.48497847
-0.22120789 -0.5055015 0.017158449 0.2207429 -0.32015398 0.07398805 0.12225087 0.5185932
0.010648668 0.11574894 -0.39519894 -0.2515825 0.15752429 0.5102977 -0.16335282 -0.14599016
0.2770803 -0.10233665 -0.16585754 -0.23147199

bias f4 [6]
00000000: 00c9 d5bb 2230 3bbe babf f7bd 6fd1 f33d
00000010: 8411 3abd 7be7 4bbd
-0.006524205 -0.1828008 -0.12097116 0.11905181 -0.04542686 -0.049781304
